…
snapshot: 15000
snapshot_prefix: "models/dstl"
test_initialization: false
average_loss: 20
iter_size: 1
I0909 03:22:01.225612 318950 solver.cpp:77] Creating training net from train_net file: trainval.prototxt
I0909 03:22:01.226027 318950 net.cpp:51] Initializing net from parameters: 
state {
  phase: TRAIN
}
layer {
  name: "data"
  type: "Python"
  top: "data"
  top: "sem"
  top: "geo"
  python_param {
    module: "dstl_layers"
    layer: "DstlSegDataLayer"
    param_str: "{\'dstl_dir\': \'../data/dstl\', \'seed\': 1337, \'split\': \'trainval\'}"
  }
}
layer {
  name: "conv1_1"
  type: "Convolution"
  bottom: "data"
  top: "conv1_1"
  param {
    lr_mult: 1
    decay_mult: 1
  }
  param {
    lr_mult: 2
    decay_mult: 0
  }
  convolution_param {
    num_output: 64
    pad: 100
    kernel_size: 3
    stride: 1
    engine: CAFFE
  }
}
layer {
  name: "relu1_1"
  type: "ReLU"
  bottom: "conv1_1"
  top: "conv1_1"
}
layer {
  name: "conv1_2"
  type: "Convolution"
  bottom: "conv1_1"
  top: "conv1_2"
  param {
    lr_mult: 1
    decay_mult: 1
  }
  param {
    lr_mult: 2
    decay_mult: 0
  }
  convolution_param {
    num_output: 64
    pad: 1
    kernel_size: 3
    stride: 1
    engine: CAFFE
  }
}
layer {
  name: "relu1_2"
  type: "ReLU"
  bottom: "conv1_2"
  top: "conv1_2"
}
layer {
  name: "pool1"
  type: "Pooling"
  bottom: "conv1_2"
  top: "pool1"
  pooling_param {
    pool: MAX
    kernel_size: 2
    stride: 2
  }
}
layer {
  name: "conv2_1"
  type: "Convolution"
  bottom: "pool1"
  top: "conv2_1"
  param {
    lr_mult: 1
    decay_mult: 1
  }
  param {
    lr_mult: 2
    decay_mult: 0
  }
  convolution_param {
    num_output: 128
    pad: 1
    kernel_size: 3
    stride: 1
    engine: CAFFE
  }
}
layer {
  name: "relu2_1"
  type: "ReLU"
  bottom: "conv2_1"
  top: "conv2_1"
}
layer {
  name: "conv2_2"
  type: "Convolution"
  bottom: "conv2_1"
  top: "conv2_2"
  param {
    lr_mult: 1
    decay_mult: 1
  }
  param {
    lr_mult: 2
    decay_mult: 0
  }
  convolution_param {
    num_output: 128
    pad: 1
    kernel_size: 3
    stride: 1
    engine: CAFFE
  }
}
layer {
  name: "relu2_2"
  type: "ReLU"
  bottom: "conv2_2"
  top: "conv2_2"
}
layer {
  name: "pool2"
  type: "Pooling"
  bottom: "conv2_2"
  top: "pool2"
  pooling_param {
    pool: MAX
    kernel_size: 2
    stride: 2
  }
}
layer {
  name: "conv3_1"
  type: "Convolution"
  bottom: "pool2"
  top: "conv3_1"
  param {
    lr_mult: 1
    decay_mult: 1
  }
  param {
    lr_mult: 2
    decay_mult: 0
  }
  convolution_param {
    num_output: 256
    pad: 1
    kernel_size: 3
    stride: 1
    engine: CAFFE
  }
}
layer {
  name: "relu3_1"
  type: "ReLU"
  bottom: "conv3_1"
  top: "conv3_1"
}
layer {
  name: "conv3_2"
  type: "Convolution"
  bottom: "conv3_1"
  top: "conv3_2"
  param {
    lr_mult: 1
    decay_mult: 1
  }
  param {
    lr_mult: 2
    decay_mult: 0
  }
  convolution_param {
    num_output: 256
    pad: 1
    kernel_size: 3
    stride: 1
    engine: CAFFE
  }
}
layer {
  name: "relu3_2"
  type: "ReLU"
  bottom: "conv3_2"
  top: "conv3_2"
}
layer {
  name: "conv3_3"
  type: "Convolution"
  bottom: "conv3_2"
  top: "conv3_3"
  param {
    lr_mult: 1
    decay_mult: 1
  }
  param {
    lr_mult: 2
    decay_mult: 0
  }
  convolution_param {
    num_output: 256
    pad: 1
    kernel_size: 3
    stride: 1
    engine: CAFFE
  }
}
layer {
  name: "relu3_3"
  type: "ReLU"
  bottom: "conv3_3"
  top: "conv3_3"
}
layer {
  name: "pool3"
  type: "Pooling"
  bottom: "conv3_3"
  top: "pool3"
  pooling_param {
    pool: MAX
    kernel_size: 2
    stride: 2
  }
}
layer {
  name: "conv4_1"
  type: "Convolution"
  bottom: "pool3"
  top: "conv4_1"
  param {
    lr_mult: 1
    decay_mult: 1
  }
  param {
    lr_mult: 2
    decay_mult: 0
  }
  convolution_param {
    num_output: 512
    pad: 1
    kernel_size: 3
    stride: 1
    engine: CAFFE
  }
}
layer {
  name: "relu4_1"
  type: "ReLU"
  bottom: "conv4_1"
  top: "conv4_1"
}
layer {
  name: "conv4_2"
  type: "Convolution"
  bottom: "conv4_1"
  top: "conv4_2"
  param {
    lr_mult: 1
    decay_mult: 1
  }
  param {
    lr_mult: 2
    decay_mult: 0
  }
  convolution_param {
    num_output: 512
    pad: 1
    kernel_size: 3
    stride: 1
    engine: CAFFE
  }
}
layer {
  name: "relu4_2"
  type: "ReLU"
  bottom: "conv4_2"
  top: "conv4_2"
}
layer {
  name: "conv4_3"
  type: "Convolution"
  bottom: "conv4_2"
  top: "conv4_3"
  param {
    lr_mult: 1
    decay_mult: 1
  }
  param {
    lr_mult: 2
    decay_mult: 0
  }
  convolution_param {
    num_output: 512
    pad: 1
    kernel_size: 3
    stride: 1
    engine: CAFFE
  }
}
layer {
  name: "relu4_3"
  type: "ReLU"
  bottom: "conv4_3"
  top: "conv4_3"
}
layer {
  name: "pool4"
  type: "Pooling"
  bottom: "conv4_3"
  top: "pool4"
  pooling_param {
    pool: MAX
    kernel_size: 2
    stride: 2
  }
}
layer {
  name: "conv5_1"
  type: "Convolution"
  bottom: "pool4"
  top: "conv5_1"
  param {
    lr_mult: 1
    decay_mult: 1
  }
  param {
    lr_mult: 2
    decay_mult: 0
  }
  convolution_param {
    num_output: 512
    pad: 1
    kernel_size: 3
    stride: 1
    engine: CAFFE
  }
}
layer {
  name: "relu5_1"
  type: "ReLU"
  bottom: "conv5_1"
  top: "conv5_1"
}
layer {
  name: "conv5_2"
  type: "Convolution"
  bottom: "conv5_1"
  top: "conv5_2"
  param {
    lr_mult: 1
    decay_mult: 1
  }
  param {
    lr_mult: 2
    decay_mult: 0
  }
  convolution_param {
    num_output: 512
    pad: 1
    kernel_size: 3
    stride: 1
    engine: CAFFE
  }
}
layer {
  name: "relu5_2"
  type: "ReLU"
  bottom: "conv5_2"
  top: "conv5_2"
}
layer {
  name: "conv5_3"
  type: "Convolution"
  bottom: "conv5_2"
  top: "conv5_3"
  param {
    lr_mult: 1
    decay_mult: 1
  }
  param {
    lr_mult: 2
    decay_mult: 0
  }
  convolution_param {
    num_output: 512
    pad: 1
    kernel_size: 3
    stride: 1
    engine: CAFFE
  }
}
layer {
  name: "relu5_3"
  type: "ReLU"
  bottom: "conv5_3"
  top: "conv5_3"
}
layer {
  name: "pool5"
  type: "Pooling"
  bottom: "conv5_3"
  top: "pool5"
  pooling_param {
    pool: MAX
    kernel_size: 2
    stride: 2
  }
}
layer {
  name: "fc6"
  type: "Convolution"
  bottom: "pool5"
  top: "fc6"
  param {
    lr_mult: 1
    decay_mult: 1
  }
  param {
    lr_mult: 2
    decay_mult: 0
  }
  convolution_param {
    num_output: 4096
    pad: 0
    kernel_size: 7
    stride: 1
    engine: CAFFE
  }
}
layer {
  name: "relu6"
  type: "ReLU"
  bottom: "fc6"
  top: "fc6"
}
layer {
  name: "drop6"
  type: "Dropout"
  bottom: "fc6"
  top: "fc6"
  dropout_param {
    dropout_ratio: 0.5
  }
}
layer {
  name: "fc7"
  type: "Convolution"
  bottom: "fc6"
  top: "fc7"
  param {
    lr_mult: 1
    decay_mult: 1
  }
  param {
    lr_mult: 2
    decay_mult: 0
  }
  convolution_param {
    num_output: 4096
    pad: 0
    kernel_size: 1
    stride: 1
    engine: CAFFE
  }
}
layer {
  name: "relu7"
  type: "ReLU"
  bottom: "fc7"
  top: "fc7"
}
layer {
  name: "drop7"
  type: "Dropout"
  bottom: "fc7"
  top: "fc7"
  dropout_param {
    dropout_ratio: 0.5
  }
}
layer {
  name: "score_fr_sem"
  type: "Convolution"
  bottom: "fc7"
  top: "score_fr_sem"
  param {
    lr_mult: 1
    decay_mult: 1
  }
  param {
    lr_mult: 2
    decay_mult: 0
  }
  convolution_param {
    num_output: 11
    pad: 0
    kernel_size: 1
    engine: CAFFE
  }
}
layer {
  name: "upscore_sem"
  type: "Deconvolution"
  bottom: "score_fr_sem"
  top: "upscore_sem"
  param {
    lr_mult: 0
  }
  convolution_param {
    num_output: 11
    bias_term: false
    kernel_size: 64
    stride: 32
    engine: CAFFE
  }
}
layer {
  name: "score_sem"
  type: "Crop"
  bottom: "upscore_sem"
  bottom: "data"
  top: "score_sem"
  crop_param {
    axis: 2
    offset: 19
  }
}
layer {
  name: "loss"
  type: "SoftmaxWithLoss"
  bottom: "score_sem"
  bottom: "sem"
  top: "loss"
  loss_param {
    normalize: false
  }
}
layer {
  name: "score_fr_geo"
  type: "Convolution"
  bottom: "fc7"
  top: "score_fr_geo"
  param {
    lr_mult: 1
    decay_mult: 1
  }
  param {
    lr_mult: 2
    decay_mult: 0
  }
  convolution_param {
    num_output: 3
    pad: 0
    kernel_size: 1
    engine: CAFFE
  }
}
layer {
  name: "upscore_geo"
  type: "Deconvolution"
  bottom: "score_fr_geo"
  top: "upscore_geo"
  param {
    lr_mult: 0
  }
  convolution_param {
    num_output: 3
    bias_term: false
    kernel_size: 64
    stride: 32
    engine: CAFFE
  }
}
layer {
  name: "score_geo"
  type: "Crop"
  bottom: "upscore_geo"
  bottom: "data"
  top: "score_geo"
  crop_param {
    axis: 2
    offset: 19
  }
}
layer {
  name: "loss_geo"
  type: "SoftmaxWithLoss"
  bottom: "score_geo"
  bottom: "geo"
  top: "loss_geo"
  loss_param {
    normalize: false
  }
}
I0909 03:22:01.226153 318950 layer_factory.hpp:77] Creating layer data
I0909 03:22:01.232414 318950 net.cpp:84] Creating Layer data
I0909 03:22:01.232429 318950 net.cpp:380] data -> data
I0909 03:22:01.232439 318950 net.cpp:380] data -> sem
I0909 03:22:01.232445 318950 net.cpp:380] data -> geo
I0909 03:22:01.254990 318950 net.cpp:122] Setting up data
I0909 03:22:01.255022 318950 net.cpp:129] Top shape: 1 3 512 512 (786432)
I0909 03:22:01.255025 318950 net.cpp:129] Top shape: 1 1 512 512 (262144)
I0909 03:22:01.255029 318950 net.cpp:129] Top shape: 1 1 512 512 (262144)
I0909 03:22:01.255031 318950 net.cpp:137] Memory required for data: 5242880
I0909 03:22:01.255038 318950 layer_factory.hpp:77] Creating layer data_data_0_split
I0909 03:22:01.255049 318950 net.cpp:84] Creating Layer data_data_0_split
I0909 03:22:01.255053 318950 net.cpp:406] data_data_0_split <- data
I0909 03:22:01.255060 318950 net.cpp:380] data_data_0_split -> data_data_0_split_0
I0909 03:22:01.255070 318950 net.cpp:380] data_data_0_split -> data_data_0_split_1
I0909 03:22:01.255077 318950 net.cpp:380] data_data_0_split -> data_data_0_split_2
I0909 03:22:01.255113 318950 net.cpp:122] Setting up data_data_0_split
I0909 03:22:01.255117 318950 net.cpp:129] Top shape: 1 3 512 512 (786432)
I0909 03:22:01.255121 318950 net.cpp:129] Top shape: 1 3 512 512 (786432)
I0909 03:22:01.255125 318950 net.cpp:129] Top shape: 1 3 512 512 (786432)
I0909 03:22:01.255127 318950 net.cpp:137] Memory required for data: 14680064
I0909 03:22:01.255129 318950 layer_factory.hpp:77] Creating layer conv1_1
I0909 03:22:01.255141 318950 net.cpp:84] Creating Layer conv1_1
I0909 03:22:01.255143 318950 net.cpp:406] conv1_1 <- data_data_0_split_0
I0909 03:22:01.255148 318950 net.cpp:380] conv1_1 -> conv1_1
I0909 03:22:01.257741 318950 net.cpp:122] Setting up conv1_1
I0909 03:22:01.257758 318950 net.cpp:129] Top shape: 1 64 710 710 (32262400)
I0909 03:22:01.257761 318950 net.cpp:137] Memory required for data: 143729664
I0909 03:22:01.257774 318950 layer_factory.hpp:77] Creating layer relu1_1
I0909 03:22:01.257781 318950 net.cpp:84] Creating Layer relu1_1
I0909 03:22:01.257786 318950 net.cpp:406] relu1_1 <- conv1_1
I0909 03:22:01.257791 318950 net.cpp:367] relu1_1 -> conv1_1 (in-place)
I0909 03:22:01.800330 318950 net.cpp:122] Setting up relu1_1
I0909 03:22:01.800392 318950 net.cpp:129] Top shape: 1 64 710 710 (32262400)
I0909 03:22:01.800396 318950 net.cpp:137] Memory required for data: 272779264
I0909 03:22:01.800401 318950 layer_factory.hpp:77] Creating layer conv1_2
I0909 03:22:01.800420 318950 net.cpp:84] Creating Layer conv1_2
I0909 03:22:01.800424 318950 net.cpp:406] conv1_2 <- conv1_1
I0909 03:22:01.800432 318950 net.cpp:380] conv1_2 -> conv1_2
I0909 03:22:01.803174 318950 net.cpp:122] Setting up conv1_2
I0909 03:22:01.803201 318950 net.cpp:129] Top shape: 1 64 710 710 (32262400)
I0909 03:22:01.803205 318950 net.cpp:137] Memory required for data: 401828864
I0909 03:22:01.803217 318950 layer_factory.hpp:77] Creating layer relu1_2
I0909 03:22:01.803225 318950 net.cpp:84] Creating Layer relu1_2
I0909 03:22:01.803228 318950 net.cpp:406] relu1_2 <- conv1_2
I0909 03:22:01.803234 318950 net.cpp:367] relu1_2 -> conv1_2 (in-place)
I0909 03:22:01.803432 318950 net.cpp:122] Setting up relu1_2
I0909 03:22:01.803457 318950 net.cpp:129] Top shape: 1 64 710 710 (32262400)
I0909 03:22:01.803460 318950 net.cpp:137] Memory required for data: 530878464
I0909 03:22:01.803463 318950 layer_factory.hpp:77] Creating layer pool1
I0909 03:22:01.803468 318950 net.cpp:84] Creating Layer pool1
I0909 03:22:01.803472 318950 net.cpp:406] pool1 <- conv1_2
I0909 03:22:01.803475 318950 net.cpp:380] pool1 -> pool1
I0909 03:22:01.803516 318950 net.cpp:122] Setting up pool1
I0909 03:22:01.803521 318950 net.cpp:129] Top shape: 1 64 355 355 (8065600)
I0909 03:22:01.803524 318950 net.cpp:137] Memory required for data: 563140864
I0909 03:22:01.803525 318950 layer_factory.hpp:77] Creating layer conv2_1
I0909 03:22:01.803532 318950 net.cpp:84] Creating Layer conv2_1
I0909 03:22:01.803535 318950 net.cpp:406] conv2_1 <- pool1
I0909 03:22:01.803540 318950 net.cpp:380] conv2_1 -> conv2_1
I0909 03:22:01.804931 318950 net.cpp:122] Setting up conv2_1
I0909 03:22:01.804945 318950 net.cpp:129] Top shape: 1 128 355 355 (16131200)
I0909 03:22:01.804949 318950 net.cpp:137] Memory required for data: 627665664
I0909 03:22:01.804958 318950 layer_factory.hpp:77] Creating layer relu2_1
I0909 03:22:01.804965 318950 net.cpp:84] Creating Layer relu2_1
I0909 03:22:01.804968 318950 net.cpp:406] relu2_1 <- conv2_1
I0909 03:22:01.804973 318950 net.cpp:367] relu2_1 -> conv2_1 (in-place)
I0909 03:22:01.805145 318950 net.cpp:122] Setting up relu2_1
I0909 03:22:01.805150 318950 net.cpp:129] Top shape: 1 128 355 355 (16131200)
I0909 03:22:01.805151 318950 net.cpp:137] Memory required for data: 692190464
I0909 03:22:01.805155 318950 layer_factory.hpp:77] Creating layer conv2_2
I0909 03:22:01.805162 318950 net.cpp:84] Creating Layer conv2_2
I0909 03:22:01.805166 318950 net.cpp:406] conv2_2 <- conv2_1
I0909 03:22:01.805171 318950 net.cpp:380] conv2_2 -> conv2_2
I0909 03:22:01.805522 318950 net.cpp:122] Setting up conv2_2
I0909 03:22:01.805531 318950 net.cpp:129] Top shape: 1 128 355 355 (16131200)
I0909 03:22:01.805533 318950 net.cpp:137] Memory required for data: 756715264
I0909 03:22:01.805539 318950 layer_factory.hpp:77] Creating layer relu2_2
I0909 03:22:01.805544 318950 net.cpp:84] Creating Layer relu2_2
I0909 03:22:01.805547 318950 net.cpp:406] relu2_2 <- conv2_2
I0909 03:22:01.805552 318950 net.cpp:367] relu2_2 -> conv2_2 (in-place)
I0909 03:22:01.808167 318950 net.cpp:122] Setting up relu2_2
I0909 03:22:01.808189 318950 net.cpp:129] Top shape: 1 128 355 355 (16131200)
I0909 03:22:01.808192 318950 net.cpp:137] Memory required for data: 821240064
I0909 03:22:01.808197 318950 layer_factory.hpp:77] Creating layer pool2
I0909 03:22:01.808202 318950 net.cpp:84] Creating Layer pool2
I0909 03:22:01.808207 318950 net.cpp:406] pool2 <- conv2_2
I0909 03:22:01.808212 318950 net.cpp:380] pool2 -> pool2
I0909 03:22:01.808262 318950 net.cpp:122] Setting up pool2
I0909 03:22:01.808266 318950 net.cpp:129] Top shape: 1 128 178 178 (4055552)
I0909 03:22:01.808269 318950 net.cpp:137] Memory required for data: 837462272
I0909 03:22:01.808272 318950 layer_factory.hpp:77] Creating layer conv3_1
I0909 03:22:01.808279 318950 net.cpp:84] Creating Layer conv3_1
I0909 03:22:01.808282 318950 net.cpp:406] conv3_1 <- pool2
I0909 03:22:01.808286 318950 net.cpp:380] conv3_1 -> conv3_1
I0909 03:22:01.809808 318950 net.cpp:122] Setting up conv3_1
I0909 03:22:01.809824 318950 net.cpp:129] Top shape: 1 256 178 178 (8111104)
I0909 03:22:01.809828 318950 net.cpp:137] Memory required for data: 869906688
I0909 03:22:01.809837 318950 layer_factory.hpp:77] Creating layer relu3_1
I0909 03:22:01.809844 318950 net.cpp:84] Creating Layer relu3_1
I0909 03:22:01.809847 318950 net.cpp:406] relu3_1 <- conv3_1
I0909 03:22:01.809851 318950 net.cpp:367] relu3_1 -> conv3_1 (in-place)
I0909 03:22:01.810031 318950 net.cpp:122] Setting up relu3_1
I0909 03:22:01.810037 318950 net.cpp:129] Top shape: 1 256 178 178 (8111104)
I0909 03:22:01.810039 318950 net.cpp:137] Memory required for data: 902351104
I0909 03:22:01.810042 318950 layer_factory.hpp:77] Creating layer conv3_2
I0909 03:22:01.810050 318950 net.cpp:84] Creating Layer conv3_2
I0909 03:22:01.810066 318950 net.cpp:406] conv3_2 <- conv3_1
I0909 03:22:01.810073 318950 net.cpp:380] conv3_2 -> conv3_2
I0909 03:22:01.811833 318950 net.cpp:122] Setting up conv3_2
I0909 03:22:01.811847 318950 net.cpp:129] Top shape: 1 256 178 178 (8111104)
I0909 03:22:01.811851 318950 net.cpp:137] Memory required for data: 934795520
I0909 03:22:01.811857 318950 layer_factory.hpp:77] Creating layer relu3_2
I0909 03:22:01.811862 318950 net.cpp:84] Creating Layer relu3_2
I0909 03:22:01.811866 318950 net.cpp:406] relu3_2 <- conv3_2
I0909 03:22:01.811872 318950 net.cpp:367] relu3_2 -> conv3_2 (in-place)
I0909 03:22:01.812058 318950 net.cpp:122] Setting up relu3_2
I0909 03:22:01.812064 318950 net.cpp:129] Top shape: 1 256 178 178 (8111104)
I0909 03:22:01.812067 318950 net.cpp:137] Memory required for data: 967239936
I0909 03:22:01.812070 318950 layer_factory.hpp:77] Creating layer conv3_3
I0909 03:22:01.812080 318950 net.cpp:84] Creating Layer conv3_3
I0909 03:22:01.812083 318950 net.cpp:406] conv3_3 <- conv3_2
I0909 03:22:01.812089 318950 net.cpp:380] conv3_3 -> conv3_3
I0909 03:22:01.813854 318950 net.cpp:122] Setting up conv3_3
I0909 03:22:01.813868 318950 net.cpp:129] Top shape: 1 256 178 178 (8111104)
I0909 03:22:01.813871 318950 net.cpp:137] Memory required for data: 999684352
I0909 03:22:01.813879 318950 layer_factory.hpp:77] Creating layer relu3_3
I0909 03:22:01.813884 318950 net.cpp:84] Creating Layer relu3_3
I0909 03:22:01.813887 318950 net.cpp:406] relu3_3 <- conv3_3
I0909 03:22:01.813891 318950 net.cpp:367] relu3_3 -> conv3_3 (in-place)
I0909 03:22:01.814071 318950 net.cpp:122] Setting up relu3_3
I0909 03:22:01.814076 318950 net.cpp:129] Top shape: 1 256 178 178 (8111104)
I0909 03:22:01.814079 318950 net.cpp:137] Memory required for data: 1032128768
I0909 03:22:01.814082 318950 layer_factory.hpp:77] Creating layer pool3
I0909 03:22:01.814087 318950 net.cpp:84] Creating Layer pool3
I0909 03:22:01.814090 318950 net.cpp:406] pool3 <- conv3_3
I0909 03:22:01.814095 318950 net.cpp:380] pool3 -> pool3
I0909 03:22:01.814126 318950 net.cpp:122] Setting up pool3
I0909 03:22:01.814131 318950 net.cpp:129] Top shape: 1 256 89 89 (2027776)
I0909 03:22:01.814133 318950 net.cpp:137] Memory required for data: 1040239872
I0909 03:22:01.814136 318950 layer_factory.hpp:77] Creating layer conv4_1
I0909 03:22:01.814142 318950 net.cpp:84] Creating Layer conv4_1
I0909 03:22:01.814146 318950 net.cpp:406] conv4_1 <- pool3
I0909 03:22:01.814151 318950 net.cpp:380] conv4_1 -> conv4_1
I0909 03:22:01.819970 318950 net.cpp:122] Setting up conv4_1
I0909 03:22:01.819993 318950 net.cpp:129] Top shape: 1 512 89 89 (4055552)
I0909 03:22:01.820008 318950 net.cpp:137] Memory required for data: 1056462080
I0909 03:22:01.820019 318950 layer_factory.hpp:77] Creating layer relu4_1
I0909 03:22:01.820026 318950 net.cpp:84] Creating Layer relu4_1
I0909 03:22:01.820031 318950 net.cpp:406] relu4_1 <- conv4_1
I0909 03:22:01.820039 318950 net.cpp:367] relu4_1 -> conv4_1 (in-place)
I0909 03:22:01.821245 318950 net.cpp:122] Setting up relu4_1
I0909 03:22:01.821256 318950 net.cpp:129] Top shape: 1 512 89 89 (4055552)
I0909 03:22:01.821260 318950 net.cpp:137] Memory required for data: 1072684288
I0909 03:22:01.821265 318950 layer_factory.hpp:77] Creating layer conv4_2
I0909 03:22:01.821276 318950 net.cpp:84] Creating Layer conv4_2
I0909 03:22:01.821281 318950 net.cpp:406] conv4_2 <- conv4_1
I0909 03:22:01.821288 318950 net.cpp:380] conv4_2 -> conv4_2
I0909 03:22:01.828209 318950 net.cpp:122] Setting up conv4_2
I0909 03:22:01.828239 318950 net.cpp:129] Top shape: 1 512 89 89 (4055552)
I0909 03:22:01.828243 318950 net.cpp:137] Memory required for data: 1088906496
I0909 03:22:01.828255 318950 layer_factory.hpp:77] Creating layer relu4_2
I0909 03:22:01.828263 318950 net.cpp:84] Creating Layer relu4_2
I0909 03:22:01.828266 318950 net.cpp:406] relu4_2 <- conv4_2
I0909 03:22:01.828271 318950 net.cpp:367] relu4_2 -> conv4_2 (in-place)
I0909 03:22:01.828474 318950 net.cpp:122] Setting up relu4_2
I0909 03:22:01.828480 318950 net.cpp:129] Top shape: 1 512 89 89 (4055552)
I0909 03:22:01.828508 318950 net.cpp:137] Memory required for data: 1105128704
I0909 03:22:01.828511 318950 layer_factory.hpp:77] Creating layer conv4_3
I0909 03:22:01.828519 318950 net.cpp:84] Creating Layer conv4_3
I0909 03:22:01.828523 318950 net.cpp:406] conv4_3 <- conv4_2
I0909 03:22:01.828528 318950 net.cpp:380] conv4_3 -> conv4_3
I0909 03:22:01.834671 318950 net.cpp:122] Setting up conv4_3
I0909 03:22:01.834702 318950 net.cpp:129] Top shape: 1 512 89 89 (4055552)
I0909 03:22:01.834704 318950 net.cpp:137] Memory required for data: 1121350912
I0909 03:22:01.834713 318950 layer_factory.hpp:77] Creating layer relu4_3
I0909 03:22:01.834720 318950 net.cpp:84] Creating Layer relu4_3
I0909 03:22:01.834723 318950 net.cpp:406] relu4_3 <- conv4_3
I0909 03:22:01.834730 318950 net.cpp:367] relu4_3 -> conv4_3 (in-place)
I0909 03:22:01.834944 318950 net.cpp:122] Setting up relu4_3
I0909 03:22:01.834949 318950 net.cpp:129] Top shape: 1 512 89 89 (4055552)
I0909 03:22:01.834952 318950 net.cpp:137] Memory required for data: 1137573120
I0909 03:22:01.834955 318950 layer_factory.hpp:77] Creating layer pool4
I0909 03:22:01.834960 318950 net.cpp:84] Creating Layer pool4
I0909 03:22:01.834964 318950 net.cpp:406] pool4 <- conv4_3
I0909 03:22:01.834969 318950 net.cpp:380] pool4 -> pool4
I0909 03:22:01.835001 318950 net.cpp:122] Setting up pool4
I0909 03:22:01.835005 318950 net.cpp:129] Top shape: 1 512 45 45 (1036800)
I0909 03:22:01.835008 318950 net.cpp:137] Memory required for data: 1141720320
I0909 03:22:01.835011 318950 layer_factory.hpp:77] Creating layer conv5_1
I0909 03:22:01.835018 318950 net.cpp:84] Creating Layer conv5_1
I0909 03:22:01.835021 318950 net.cpp:406] conv5_1 <- pool4
I0909 03:22:01.835026 318950 net.cpp:380] conv5_1 -> conv5_1
I0909 03:22:01.841255 318950 net.cpp:122] Setting up conv5_1
I0909 03:22:01.841284 318950 net.cpp:129] Top shape: 1 512 45 45 (1036800)
I0909 03:22:01.841286 318950 net.cpp:137] Memory required for data: 1145867520
I0909 03:22:01.841295 318950 layer_factory.hpp:77] Creating layer relu5_1
I0909 03:22:01.841301 318950 net.cpp:84] Creating Layer relu5_1
I0909 03:22:01.841305 318950 net.cpp:406] relu5_1 <- conv5_1
I0909 03:22:01.841310 318950 net.cpp:367] relu5_1 -> conv5_1 (in-place)
I0909 03:22:01.842358 318950 net.cpp:122] Setting up relu5_1
I0909 03:22:01.842368 318950 net.cpp:129] Top shape: 1 512 45 45 (1036800)
I0909 03:22:01.842371 318950 net.cpp:137] Memory required for data: 1150014720
I0909 03:22:01.842375 318950 layer_factory.hpp:77] Creating layer conv5_2
I0909 03:22:01.842383 318950 net.cpp:84] Creating Layer conv5_2
I0909 03:22:01.842386 318950 net.cpp:406] conv5_2 <- conv5_1
I0909 03:22:01.842392 318950 net.cpp:380] conv5_2 -> conv5_2
I0909 03:22:01.848304 318950 net.cpp:122] Setting up conv5_2
I0909 03:22:01.848320 318950 net.cpp:129] Top shape: 1 512 45 45 (1036800)
I0909 03:22:01.848323 318950 net.cpp:137] Memory required for data: 1154161920
I0909 03:22:01.848332 318950 layer_factory.hpp:77] Creating layer relu5_2
I0909 03:22:01.848338 318950 net.cpp:84] Creating Layer relu5_2
I0909 03:22:01.848342 318950 net.cpp:406] relu5_2 <- conv5_2
I0909 03:22:01.848347 318950 net.cpp:367] relu5_2 -> conv5_2 (in-place)
I0909 03:22:01.848546 318950 net.cpp:122] Setting up relu5_2
I0909 03:22:01.848552 318950 net.cpp:129] Top shape: 1 512 45 45 (1036800)
I0909 03:22:01.848554 318950 net.cpp:137] Memory required for data: 1158309120
I0909 03:22:01.848557 318950 layer_factory.hpp:77] Creating layer conv5_3
I0909 03:22:01.848565 318950 net.cpp:84] Creating Layer conv5_3
I0909 03:22:01.848568 318950 net.cpp:406] conv5_3 <- conv5_2
I0909 03:22:01.848573 318950 net.cpp:380] conv5_3 -> conv5_3
I0909 03:22:01.854568 318950 net.cpp:122] Setting up conv5_3
I0909 03:22:01.854591 318950 net.cpp:129] Top shape: 1 512 45 45 (1036800)
I0909 03:22:01.854593 318950 net.cpp:137] Memory required for data: 1162456320
I0909 03:22:01.854602 318950 layer_factory.hpp:77] Creating layer relu5_3
I0909 03:22:01.854609 318950 net.cpp:84] Creating Layer relu5_3
I0909 03:22:01.854612 318950 net.cpp:406] relu5_3 <- conv5_3
I0909 03:22:01.854635 318950 net.cpp:367] relu5_3 -> conv5_3 (in-place)
I0909 03:22:01.854841 318950 net.cpp:122] Setting up relu5_3
I0909 03:22:01.854847 318950 net.cpp:129] Top shape: 1 512 45 45 (1036800)
I0909 03:22:01.854851 318950 net.cpp:137] Memory required for data: 1166603520
I0909 03:22:01.854853 318950 layer_factory.hpp:77] Creating layer pool5
I0909 03:22:01.854863 318950 net.cpp:84] Creating Layer pool5
I0909 03:22:01.854866 318950 net.cpp:406] pool5 <- conv5_3
I0909 03:22:01.854871 318950 net.cpp:380] pool5 -> pool5
I0909 03:22:01.854907 318950 net.cpp:122] Setting up pool5
I0909 03:22:01.854912 318950 net.cpp:129] Top shape: 1 512 23 23 (270848)
I0909 03:22:01.854914 318950 net.cpp:137] Memory required for data: 1167686912
I0909 03:22:01.854918 318950 layer_factory.hpp:77] Creating layer fc6
I0909 03:22:01.854925 318950 net.cpp:84] Creating Layer fc6
I0909 03:22:01.854928 318950 net.cpp:406] fc6 <- pool5
I0909 03:22:01.854933 318950 net.cpp:380] fc6 -> fc6
I0909 03:22:02.096279 318950 net.cpp:122] Setting up fc6
I0909 03:22:02.096359 318950 net.cpp:129] Top shape: 1 4096 17 17 (1183744)
I0909 03:22:02.096364 318950 net.cpp:137] Memory required for data: 1172421888
I0909 03:22:02.096372 318950 layer_factory.hpp:77] Creating layer relu6
I0909 03:22:02.096382 318950 net.cpp:84] Creating Layer relu6
I0909 03:22:02.096388 318950 net.cpp:406] relu6 <- fc6
I0909 03:22:02.096395 318950 net.cpp:367] relu6 -> fc6 (in-place)
I0909 03:22:02.097754 318950 net.cpp:122] Setting up relu6
I0909 03:22:02.097766 318950 net.cpp:129] Top shape: 1 4096 17 17 (1183744)
I0909 03:22:02.097769 318950 net.cpp:137] Memory required for data: 1177156864
I0909 03:22:02.097772 318950 layer_factory.hpp:77] Creating layer drop6
I0909 03:22:02.097780 318950 net.cpp:84] Creating Layer drop6
I0909 03:22:02.097784 318950 net.cpp:406] drop6 <- fc6
I0909 03:22:02.097790 318950 net.cpp:367] drop6 -> fc6 (in-place)
I0909 03:22:02.097823 318950 net.cpp:122] Setting up drop6
I0909 03:22:02.097828 318950 net.cpp:129] Top shape: 1 4096 17 17 (1183744)
I0909 03:22:02.097831 318950 net.cpp:137] Memory required for data: 1181891840
I0909 03:22:02.097834 318950 layer_factory.hpp:77] Creating layer fc7
I0909 03:22:02.097843 318950 net.cpp:84] Creating Layer fc7
I0909 03:22:02.097846 318950 net.cpp:406] fc7 <- fc6
I0909 03:22:02.097851 318950 net.cpp:380] fc7 -> fc7
I0909 03:22:02.138216 318950 net.cpp:122] Setting up fc7
I0909 03:22:02.138311 318950 net.cpp:129] Top shape: 1 4096 17 17 (1183744)
I0909 03:22:02.138315 318950 net.cpp:137] Memory required for data: 1186626816
I0909 03:22:02.138325 318950 layer_factory.hpp:77] Creating layer relu7
I0909 03:22:02.138335 318950 net.cpp:84] Creating Layer relu7
I0909 03:22:02.138355 318950 net.cpp:406] relu7 <- fc7
I0909 03:22:02.138362 318950 net.cpp:367] relu7 -> fc7 (in-place)
I0909 03:22:02.138630 318950 net.cpp:122] Setting up relu7
I0909 03:22:02.138638 318950 net.cpp:129] Top shape: 1 4096 17 17 (1183744)
I0909 03:22:02.138640 318950 net.cpp:137] Memory required for data: 1191361792
I0909 03:22:02.138643 318950 layer_factory.hpp:77] Creating layer drop7
I0909 03:22:02.138648 318950 net.cpp:84] Creating Layer drop7
I0909 03:22:02.138651 318950 net.cpp:406] drop7 <- fc7
I0909 03:22:02.138655 318950 net.cpp:367] drop7 -> fc7 (in-place)
I0909 03:22:02.138679 318950 net.cpp:122] Setting up drop7
I0909 03:22:02.138684 318950 net.cpp:129] Top shape: 1 4096 17 17 (1183744)
I0909 03:22:02.138685 318950 net.cpp:137] Memory required for data: 1196096768
I0909 03:22:02.138689 318950 layer_factory.hpp:77] Creating layer fc7_drop7_0_split
I0909 03:22:02.138695 318950 net.cpp:84] Creating Layer fc7_drop7_0_split
I0909 03:22:02.138697 318950 net.cpp:406] fc7_drop7_0_split <- fc7
I0909 03:22:02.138703 318950 net.cpp:380] fc7_drop7_0_split -> fc7_drop7_0_split_0
I0909 03:22:02.138708 318950 net.cpp:380] fc7_drop7_0_split -> fc7_drop7_0_split_1
I0909 03:22:02.138738 318950 net.cpp:122] Setting up fc7_drop7_0_split
I0909 03:22:02.138742 318950 net.cpp:129] Top shape: 1 4096 17 17 (1183744)
I0909 03:22:02.138774 318950 net.cpp:129] Top shape: 1 4096 17 17 (1183744)
I0909 03:22:02.138777 318950 net.cpp:137] Memory required for data: 1205566720
I0909 03:22:02.138779 318950 layer_factory.hpp:77] Creating layer score_fr_sem
I0909 03:22:02.138789 318950 net.cpp:84] Creating Layer score_fr_sem
I0909 03:22:02.138792 318950 net.cpp:406] score_fr_sem <- fc7_drop7_0_split_0
I0909 03:22:02.138797 318950 net.cpp:380] score_fr_sem -> score_fr_sem
I0909 03:22:02.139078 318950 net.cpp:122] Setting up score_fr_sem
I0909 03:22:02.139086 318950 net.cpp:129] Top shape: 1 11 17 17 (3179)
I0909 03:22:02.139088 318950 net.cpp:137] Memory required for data: 1205579436
I0909 03:22:02.139093 318950 layer_factory.hpp:77] Creating layer upscore_sem
I0909 03:22:02.139101 318950 net.cpp:84] Creating Layer upscore_sem
I0909 03:22:02.139104 318950 net.cpp:406] upscore_sem <- score_fr_sem
I0909 03:22:02.139108 318950 net.cpp:380] upscore_sem -> upscore_sem
I0909 03:22:02.141268 318950 net.cpp:122] Setting up upscore_sem
I0909 03:22:02.141304 318950 net.cpp:129] Top shape: 1 11 576 576 (3649536)
I0909 03:22:02.141307 318950 net.cpp:137] Memory required for data: 1220177580
I0909 03:22:02.141324 318950 layer_factory.hpp:77] Creating layer score_sem
I0909 03:22:02.141335 318950 net.cpp:84] Creating Layer score_sem
I0909 03:22:02.141338 318950 net.cpp:406] score_sem <- upscore_sem
I0909 03:22:02.141345 318950 net.cpp:406] score_sem <- data_data_0_split_1
I0909 03:22:02.141350 318950 net.cpp:380] score_sem -> score_sem
I0909 03:22:02.141433 318950 net.cpp:122] Setting up score_sem
I0909 03:22:02.141438 318950 net.cpp:129] Top shape: 1 11 512 512 (2883584)
I0909 03:22:02.141440 318950 net.cpp:137] Memory required for data: 1231711916
I0909 03:22:02.141443 318950 layer_factory.hpp:77] Creating layer loss
I0909 03:22:02.141448 318950 net.cpp:84] Creating Layer loss
I0909 03:22:02.141451 318950 net.cpp:406] loss <- score_sem
I0909 03:22:02.141455 318950 net.cpp:406] loss <- sem
I0909 03:22:02.141460 318950 net.cpp:380] loss -> loss
I0909 03:22:02.141466 318950 layer_factory.hpp:77] Creating layer loss
I0909 03:22:02.149216 318950 net.cpp:122] Setting up loss
I0909 03:22:02.149268 318950 net.cpp:129] Top shape: (1)
I0909 03:22:02.149271 318950 net.cpp:132]     with loss weight 1
I0909 03:22:02.149312 318950 net.cpp:137] Memory required for data: 1231711920
I0909 03:22:02.149317 318950 layer_factory.hpp:77] Creating layer score_fr_geo
I0909 03:22:02.149330 318950 net.cpp:84] Creating Layer score_fr_geo
I0909 03:22:02.149335 318950 net.cpp:406] score_fr_geo <- fc7_drop7_0_split_1
I0909 03:22:02.149343 318950 net.cpp:380] score_fr_geo -> score_fr_geo
I0909 03:22:02.149617 318950 net.cpp:122] Setting up score_fr_geo
I0909 03:22:02.149622 318950 net.cpp:129] Top shape: 1 3 17 17 (867)
I0909 03:22:02.149626 318950 net.cpp:137] Memory required for data: 1231715388
I0909 03:22:02.149632 318950 layer_factory.hpp:77] Creating layer upscore_geo
I0909 03:22:02.149639 318950 net.cpp:84] Creating Layer upscore_geo
I0909 03:22:02.149642 318950 net.cpp:406] upscore_geo <- score_fr_geo
I0909 03:22:02.149647 318950 net.cpp:380] upscore_geo -> upscore_geo
I0909 03:22:02.149855 318950 net.cpp:122] Setting up upscore_geo
I0909 03:22:02.149859 318950 net.cpp:129] Top shape: 1 3 576 576 (995328)
I0909 03:22:02.149863 318950 net.cpp:137] Memory required for data: 1235696700
I0909 03:22:02.149865 318950 layer_factory.hpp:77] Creating layer score_geo
I0909 03:22:02.149871 318950 net.cpp:84] Creating Layer score_geo
I0909 03:22:02.149873 318950 net.cpp:406] score_geo <- upscore_geo
I0909 03:22:02.149878 318950 net.cpp:406] score_geo <- data_data_0_split_2
I0909 03:22:02.149883 318950 net.cpp:380] score_geo -> score_geo
I0909 03:22:02.149963 318950 net.cpp:122] Setting up score_geo
I0909 03:22:02.149967 318950 net.cpp:129] Top shape: 1 3 512 512 (786432)
I0909 03:22:02.149971 318950 net.cpp:137] Memory required for data: 1238842428
I0909 03:22:02.149972 318950 layer_factory.hpp:77] Creating layer loss_geo
I0909 03:22:02.149979 318950 net.cpp:84] Creating Layer loss_geo
I0909 03:22:02.150007 318950 net.cpp:406] loss_geo <- score_geo
I0909 03:22:02.150012 318950 net.cpp:406] loss_geo <- geo
I0909 03:22:02.150017 318950 net.cpp:380] loss_geo -> loss_geo
…
I0909 03:22:02.521960 318950 upgrade_proto.cpp:67] Attempting to upgrade input file specified using deprecated input fields: /home/jhy/env/caffe/fcn/ilsvrc-nets/VGG_ILSVRC_16_layers_deploy.prototxt
I0909 03:22:02.521967 318950 upgrade_proto.cpp:70] Successfully upgraded file specified using deprecated input fields.
W0909 03:22:02.521970 318950 upgrade_proto.cpp:72] Note that future Caffe releases will only support input layers and not input fields.
I0909 03:22:02.522087 318950 net.cpp:51] Initializing net from parameters: 
name: "VGG_ILSVRC_16_layers"
state {
  phase: TRAIN
  level: 0
}
layer {
  name: "input"
  type: "Input"
  top: "data"
  input_param {
    shape {
      dim: 10
      dim: 3
      dim: 224
      dim: 224
    }
  }
}
layer {
  name: "conv1_1"
  type: "Convolution"
  bottom: "data"
  top: "conv1_1"
  convolution_param {
    num_output: 64
    pad: 1
    kernel_size: 3
    engine: CAFFE
  }
}
layer {
  name: "relu1_1"
  type: "ReLU"
  bottom: "conv1_1"
  top: "conv1_1"
}
layer {
  name: "conv1_2"
  type: "Convolution"
  bottom: "conv1_1"
  top: "conv1_2"
  convolution_param {
    num_output: 64
    pad: 1
    kernel_size: 3
    engine: CAFFE
  }
}
layer {
  name: "relu1_2"
  type: "ReLU"
  bottom: "conv1_2"
  top: "conv1_2"
}
layer {
  name: "pool1"
  type: "Pooling"
  bottom: "conv1_2"
  top: "pool1"
  pooling_param {
    pool: MAX
    kernel_size: 2
    stride: 2
  }
}
layer {
  name: "conv2_1"
  type: "Convolution"
  bottom: "pool1"
  top: "conv2_1"
  convolution_param {
    num_output: 128
    pad: 1
    kernel_size: 3
    engine: CAFFE
  }
}
layer {
  name: "relu2_1"
  type: "ReLU"
  bottom: "conv2_1"
  top: "conv2_1"
}
layer {
  name: "conv2_2"
  type: "Convolution"
  bottom: "conv2_1"
  top: "conv2_2"
  convolution_param {
    num_output: 128
    pad: 1
    kernel_size: 3
    engine: CAFFE
  }
}
layer {
  name: "relu2_2"
  type: "ReLU"
  bottom: "conv2_2"
  top: "conv2_2"
}
layer {
  name: "pool2"
  type: "Pooling"
  bottom: "conv2_2"
  top: "pool2"
  pooling_param {
    pool: MAX
    kernel_size: 2
    stride: 2
  }
}
layer {
  name: "conv3_1"
  type: "Convolution"
  bottom: "pool2"
  top: "conv3_1"
  convolution_param {
    num_output: 256
    pad: 1
    kernel_size: 3
    engine: CAFFE
  }
}
layer {
  name: "relu3_1"
  type: "ReLU"
  bottom: "conv3_1"
  top: "conv3_1"
}
layer {
  name: "conv3_2"
  type: "Convolution"
  bottom: "conv3_1"
  top: "conv3_2"
  convolution_param {
    num_output: 256
    pad: 1
    kernel_size: 3
    engine: CAFFE
  }
}
layer {
  name: "relu3_2"
  type: "ReLU"
  bottom: "conv3_2"
  top: "conv3_2"
}
layer {
  name: "conv3_3"
  type: "Convolution"
  bottom: "conv3_2"
  top: "conv3_3"
  convolution_param {
    num_output: 256
    pad: 1
    kernel_size: 3
    engine: CAFFE
  }
}
layer {
  name: "relu3_3"
  type: "ReLU"
  bottom: "conv3_3"
  top: "conv3_3"
}
layer {
  name: "pool3"
  type: "Pooling"
  bottom: "conv3_3"
  top: "pool3"
  pooling_param {
    pool: MAX
    kernel_size: 2
    stride: 2
  }
}
layer {
  name: "conv4_1"
  type: "Convolution"
  bottom: "pool3"
  top: "conv4_1"
  convolution_param {
    num_output: 512
    pad: 1
    kernel_size: 3
    engine: CAFFE
  }
}
layer {
  name: "relu4_1"
  type: "ReLU"
  bottom: "conv4_1"
  top: "conv4_1"
}
layer {
  name: "conv4_2"
  type: "Convolution"
  bottom: "conv4_1"
  top: "conv4_2"
  convolution_param {
    num_output: 512
    pad: 1
    kernel_size: 3
    engine: CAFFE
  }
}
layer {
  name: "relu4_2"
  type: "ReLU"
  bottom: "conv4_2"
  top: "conv4_2"
}
layer {
  name: "conv4_3"
  type: "Convolution"
  bottom: "conv4_2"
  top: "conv4_3"
  convolution_param {
    num_output: 512
    pad: 1
    kernel_size: 3
    engine: CAFFE
  }
}
layer {
  name: "relu4_3"
  type: "ReLU"
  bottom: "conv4_3"
  top: "conv4_3"
}
layer {
  name: "pool4"
  type: "Pooling"
  bottom: "conv4_3"
  top: "pool4"
  pooling_param {
    pool: MAX
    kernel_size: 2
    stride: 2
  }
}
layer {
  name: "conv5_1"
  type: "Convolution"
  bottom: "pool4"
  top: "conv5_1"
  convolution_param {
    num_output: 512
    pad: 1
    kernel_size: 3
    engine: CAFFE
  }
}
layer {
  name: "relu5_1"
  type: "ReLU"
  bottom: "conv5_1"
  top: "conv5_1"
}
layer {
  name: "conv5_2"
  type: "Convolution"
  bottom: "conv5_1"
  top: "conv5_2"
  convolution_param {
    num_output: 512
    pad: 1
    kernel_size: 3
    engine: CAFFE
  }
}
layer {
  name: "relu5_2"
  type: "ReLU"
  bottom: "conv5_2"
  top: "conv5_2"
}
layer {
  name: "conv5_3"
  type: "Convolution"
  bottom: "conv5_2"
  top: "conv5_3"
  convolution_param {
    num_output: 512
    pad: 1
    kernel_size: 3
    engine: CAFFE
  }
}
layer {
  name: "relu5_3"
  type: "ReLU"
  bottom: "conv5_3"
  top: "conv5_3"
}
layer {
  name: "pool5"
  type: "Pooling"
  bottom: "conv5_3"
  top: "pool5"
  pooling_param {
    pool: MAX
    kernel_size: 2
    stride: 2
  }
}
layer {
  name: "fc6"
  type: "InnerProduct"
  bottom: "pool5"
  top: "fc6"
  inner_product_param {
    num_output: 4096
  }
}
layer {
  name: "relu6"
  type: "ReLU"
  bottom: "fc6"
  top: "fc6"
}
layer {
  name: "drop6"
  type: "Dropout"
  bottom: "fc6"
  top: "fc6"
  dropout_param {
    dropout_ratio: 0.5
  }
}
layer {
  name: "fc7"
  type: "InnerProduct"
  bottom: "fc6"
  top: "fc7"
  inner_product_param {
    num_output: 4096
  }
}
layer {
  name: "relu7"
  type: "ReLU"
  bottom: "fc7"
  top: "fc7"
}
layer {
  name: "drop7"
  type: "Dropout"
  bottom: "fc7"
  top: "fc7"
  dropout_param {
    dropout_ratio: 0.5
  }
}
layer {
  name: "fc8"
  type: "InnerProduct"
  bottom: "fc7"
  top: "fc8"
  inner_product_param {
    num_output: 1000
  }
}
layer {
  name: "prob"
  type: "Softmax"
  bottom: "fc8"
  top: "prob"
}
I0909 03:22:02.522161 318950 layer_factory.hpp:77] Creating layer input
I0909 03:22:02.522167 318950 net.cpp:84] Creating Layer input
I0909 03:22:02.522171 318950 net.cpp:380] input -> data
I0909 03:22:02.522204 318950 net.cpp:122] Setting up input
I0909 03:22:02.522209 318950 net.cpp:129] Top shape: 10 3 224 224 (1505280)
I0909 03:22:02.522212 318950 net.cpp:137] Memory required for data: 6021120
I0909 03:22:02.522215 318950 layer_factory.hpp:77] Creating layer conv1_1
I0909 03:22:02.522222 318950 net.cpp:84] Creating Layer conv1_1
I0909 03:22:02.522223 318950 net.cpp:406] conv1_1 <- data
I0909 03:22:02.522228 318950 net.cpp:380] conv1_1 -> conv1_1
I0909 03:22:02.522500 318950 net.cpp:122] Setting up conv1_1
I0909 03:22:02.522505 318950 net.cpp:129] Top shape: 10 64 224 224 (32112640)
I0909 03:22:02.522508 318950 net.cpp:137] Memory required for data: 134471680
I0909 03:22:02.522516 318950 layer_factory.hpp:77] Creating layer relu1_1
I0909 03:22:02.522521 318950 net.cpp:84] Creating Layer relu1_1
I0909 03:22:02.522523 318950 net.cpp:406] relu1_1 <- conv1_1
I0909 03:22:02.522527 318950 net.cpp:367] relu1_1 -> conv1_1 (in-place)
I0909 03:22:02.522720 318950 net.cpp:122] Setting up relu1_1
I0909 03:22:02.522727 318950 net.cpp:129] Top shape: 10 64 224 224 (32112640)
I0909 03:22:02.522728 318950 net.cpp:137] Memory required for data: 262922240
I0909 03:22:02.522737 318950 layer_factory.hpp:77] Creating layer conv1_2
I0909 03:22:02.522742 318950 net.cpp:84] Creating Layer conv1_2
I0909 03:22:02.522744 318950 net.cpp:406] conv1_2 <- conv1_1
I0909 03:22:02.522749 318950 net.cpp:380] conv1_2 -> conv1_2
I0909 03:22:02.524117 318950 net.cpp:122] Setting up conv1_2
I0909 03:22:02.524132 318950 net.cpp:129] Top shape: 10 64 224 224 (32112640)
I0909 03:22:02.524135 318950 net.cpp:137] Memory required for data: 391372800
I0909 03:22:02.524145 318950 layer_factory.hpp:77] Creating layer relu1_2
I0909 03:22:02.524152 318950 net.cpp:84] Creating Layer relu1_2
I0909 03:22:02.524157 318950 net.cpp:406] relu1_2 <- conv1_2
I0909 03:22:02.524160 318950 net.cpp:367] relu1_2 -> conv1_2 (in-place)
I0909 03:22:02.524361 318950 net.cpp:122] Setting up relu1_2
I0909 03:22:02.524368 318950 net.cpp:129] Top shape: 10 64 224 224 (32112640)
I0909 03:22:02.524369 318950 net.cpp:137] Memory required for data: 519823360
I0909 03:22:02.524372 318950 layer_factory.hpp:77] Creating layer pool1
I0909 03:22:02.524379 318950 net.cpp:84] Creating Layer pool1
I0909 03:22:02.524380 318950 net.cpp:406] pool1 <- conv1_2
I0909 03:22:02.524384 318950 net.cpp:380] pool1 -> pool1
I0909 03:22:02.524435 318950 net.cpp:122] Setting up pool1
I0909 03:22:02.524438 318950 net.cpp:129] Top shape: 10 64 112 112 (8028160)
I0909 03:22:02.524441 318950 net.cpp:137] Memory required for data: 551936000
I0909 03:22:02.524443 318950 layer_factory.hpp:77] Creating layer conv2_1
I0909 03:22:02.524451 318950 net.cpp:84] Creating Layer conv2_1
I0909 03:22:02.524453 318950 net.cpp:406] conv2_1 <- pool1
I0909 03:22:02.524457 318950 net.cpp:380] conv2_1 -> conv2_1
I0909 03:22:02.524750 318950 net.cpp:122] Setting up conv2_1
I0909 03:22:02.524755 318950 net.cpp:129] Top shape: 10 128 112 112 (16056320)
I0909 03:22:02.524758 318950 net.cpp:137] Memory required for data: 616161280
I0909 03:22:02.524765 318950 layer_factory.hpp:77] Creating layer relu2_1
I0909 03:22:02.524770 318950 net.cpp:84] Creating Layer relu2_1
I0909 03:22:02.524772 318950 net.cpp:406] relu2_1 <- conv2_1
I0909 03:22:02.524776 318950 net.cpp:367] relu2_1 -> conv2_1 (in-place)
I0909 03:22:02.524938 318950 net.cpp:122] Setting up relu2_1
I0909 03:22:02.524945 318950 net.cpp:129] Top shape: 10 128 112 112 (16056320)
I0909 03:22:02.524947 318950 net.cpp:137] Memory required for data: 680386560
I0909 03:22:02.524950 318950 layer_factory.hpp:77] Creating layer conv2_2
I0909 03:22:02.524956 318950 net.cpp:84] Creating Layer conv2_2
I0909 03:22:02.524958 318950 net.cpp:406] conv2_2 <- conv2_1
I0909 03:22:02.524963 318950 net.cpp:380] conv2_2 -> conv2_2
I0909 03:22:02.525331 318950 net.cpp:122] Setting up conv2_2
I0909 03:22:02.525338 318950 net.cpp:129] Top shape: 10 128 112 112 (16056320)
I0909 03:22:02.525341 318950 net.cpp:137] Memory required for data: 744611840
I0909 03:22:02.525346 318950 layer_factory.hpp:77] Creating layer relu2_2
I0909 03:22:02.525351 318950 net.cpp:84] Creating Layer relu2_2
I0909 03:22:02.525353 318950 net.cpp:406] relu2_2 <- conv2_2
I0909 03:22:02.525357 318950 net.cpp:367] relu2_2 -> conv2_2 (in-place)
I0909 03:22:02.526254 318950 net.cpp:122] Setting up relu2_2
I0909 03:22:02.526263 318950 net.cpp:129] Top shape: 10 128 112 112 (16056320)
I0909 03:22:02.526266 318950 net.cpp:137] Memory required for data: 808837120
I0909 03:22:02.526269 318950 layer_factory.hpp:77] Creating layer pool2
I0909 03:22:02.526275 318950 net.cpp:84] Creating Layer pool2
I0909 03:22:02.526278 318950 net.cpp:406] pool2 <- conv2_2
I0909 03:22:02.526283 318950 net.cpp:380] pool2 -> pool2
I0909 03:22:02.526324 318950 net.cpp:122] Setting up pool2
I0909 03:22:02.526329 318950 net.cpp:129] Top shape: 10 128 56 56 (4014080)
I0909 03:22:02.526330 318950 net.cpp:137] Memory required for data: 824893440
I0909 03:22:02.526334 318950 layer_factory.hpp:77] Creating layer conv3_1
I0909 03:22:02.526338 318950 net.cpp:84] Creating Layer conv3_1
I0909 03:22:02.526341 318950 net.cpp:406] conv3_1 <- pool2
I0909 03:22:02.526345 318950 net.cpp:380] conv3_1 -> conv3_1
I0909 03:22:02.527771 318950 net.cpp:122] Setting up conv3_1
I0909 03:22:02.527786 318950 net.cpp:129] Top shape: 10 256 56 56 (8028160)
I0909 03:22:02.527788 318950 net.cpp:137] Memory required for data: 857006080
I0909 03:22:02.527798 318950 layer_factory.hpp:77] Creating layer relu3_1
I0909 03:22:02.527803 318950 net.cpp:84] Creating Layer relu3_1
I0909 03:22:02.527807 318950 net.cpp:406] relu3_1 <- conv3_1
I0909 03:22:02.527812 318950 net.cpp:367] relu3_1 -> conv3_1 (in-place)
I0909 03:22:02.527981 318950 net.cpp:122] Setting up relu3_1
I0909 03:22:02.527987 318950 net.cpp:129] Top shape: 10 256 56 56 (8028160)
I0909 03:22:02.527988 318950 net.cpp:137] Memory required for data: 889118720
I0909 03:22:02.527992 318950 layer_factory.hpp:77] Creating layer conv3_2
I0909 03:22:02.528004 318950 net.cpp:84] Creating Layer conv3_2
I0909 03:22:02.528007 318950 net.cpp:406] conv3_2 <- conv3_1
I0909 03:22:02.528012 318950 net.cpp:380] conv3_2 -> conv3_2
I0909 03:22:02.529731 318950 net.cpp:122] Setting up conv3_2
I0909 03:22:02.529743 318950 net.cpp:129] Top shape: 10 256 56 56 (8028160)
I0909 03:22:02.529745 318950 net.cpp:137] Memory required for data: 921231360
I0909 03:22:02.529752 318950 layer_factory.hpp:77] Creating layer relu3_2
I0909 03:22:02.529757 318950 net.cpp:84] Creating Layer relu3_2
I0909 03:22:02.529760 318950 net.cpp:406] relu3_2 <- conv3_2
I0909 03:22:02.529764 318950 net.cpp:367] relu3_2 -> conv3_2 (in-place)
I0909 03:22:02.529934 318950 net.cpp:122] Setting up relu3_2
I0909 03:22:02.529939 318950 net.cpp:129] Top shape: 10 256 56 56 (8028160)
I0909 03:22:02.529942 318950 net.cpp:137] Memory required for data: 953344000
I0909 03:22:02.529944 318950 layer_factory.hpp:77] Creating layer conv3_3
I0909 03:22:02.529950 318950 net.cpp:84] Creating Layer conv3_3
I0909 03:22:02.529953 318950 net.cpp:406] conv3_3 <- conv3_2
I0909 03:22:02.529958 318950 net.cpp:380] conv3_3 -> conv3_3
I0909 03:22:02.531689 318950 net.cpp:122] Setting up conv3_3
I0909 03:22:02.531702 318950 net.cpp:129] Top shape: 10 256 56 56 (8028160)
I0909 03:22:02.531704 318950 net.cpp:137] Memory required for data: 985456640
I0909 03:22:02.531709 318950 layer_factory.hpp:77] Creating layer relu3_3
I0909 03:22:02.531718 318950 net.cpp:84] Creating Layer relu3_3
I0909 03:22:02.531721 318950 net.cpp:406] relu3_3 <- conv3_3
I0909 03:22:02.531726 318950 net.cpp:367] relu3_3 -> conv3_3 (in-place)
I0909 03:22:02.532680 318950 net.cpp:122] Setting up relu3_3
I0909 03:22:02.532691 318950 net.cpp:129] Top shape: 10 256 56 56 (8028160)
I0909 03:22:02.532693 318950 net.cpp:137] Memory required for data: 1017569280
I0909 03:22:02.532696 318950 layer_factory.hpp:77] Creating layer pool3
I0909 03:22:02.532703 318950 net.cpp:84] Creating Layer pool3
I0909 03:22:02.532706 318950 net.cpp:406] pool3 <- conv3_3
I0909 03:22:02.532711 318950 net.cpp:380] pool3 -> pool3
I0909 03:22:02.532755 318950 net.cpp:122] Setting up pool3
I0909 03:22:02.532760 318950 net.cpp:129] Top shape: 10 256 28 28 (2007040)
I0909 03:22:02.532763 318950 net.cpp:137] Memory required for data: 1025597440
I0909 03:22:02.532765 318950 layer_factory.hpp:77] Creating layer conv4_1
I0909 03:22:02.532770 318950 net.cpp:84] Creating Layer conv4_1
I0909 03:22:02.532773 318950 net.cpp:406] conv4_1 <- pool3
I0909 03:22:02.532783 318950 net.cpp:380] conv4_1 -> conv4_1
I0909 03:22:02.535822 318950 net.cpp:122] Setting up conv4_1
I0909 03:22:02.535835 318950 net.cpp:129] Top shape: 10 512 28 28 (4014080)
I0909 03:22:02.535838 318950 net.cpp:137] Memory required for data: 1041653760
I0909 03:22:02.535845 318950 layer_factory.hpp:77] Creating layer relu4_1
I0909 03:22:02.535850 318950 net.cpp:84] Creating Layer relu4_1
I0909 03:22:02.535852 318950 net.cpp:406] relu4_1 <- conv4_1
I0909 03:22:02.535858 318950 net.cpp:367] relu4_1 -> conv4_1 (in-place)
I0909 03:22:02.536088 318950 net.cpp:122] Setting up relu4_1
I0909 03:22:02.536095 318950 net.cpp:129] Top shape: 10 512 28 28 (4014080)
I0909 03:22:02.536098 318950 net.cpp:137] Memory required for data: 1057710080
I0909 03:22:02.536100 318950 layer_factory.hpp:77] Creating layer conv4_2
I0909 03:22:02.536115 318950 net.cpp:84] Creating Layer conv4_2
I0909 03:22:02.536118 318950 net.cpp:406] conv4_2 <- conv4_1
I0909 03:22:02.536126 318950 net.cpp:380] conv4_2 -> conv4_2
I0909 03:22:02.541893 318950 net.cpp:122] Setting up conv4_2
I0909 03:22:02.541908 318950 net.cpp:129] Top shape: 10 512 28 28 (4014080)
I0909 03:22:02.541910 318950 net.cpp:137] Memory required for data: 1073766400
I0909 03:22:02.541923 318950 layer_factory.hpp:77] Creating layer relu4_2
I0909 03:22:02.541929 318950 net.cpp:84] Creating Layer relu4_2
I0909 03:22:02.541931 318950 net.cpp:406] relu4_2 <- conv4_2
I0909 03:22:02.541936 318950 net.cpp:367] relu4_2 -> conv4_2 (in-place)
I0909 03:22:02.542137 318950 net.cpp:122] Setting up relu4_2
I0909 03:22:02.542142 318950 net.cpp:129] Top shape: 10 512 28 28 (4014080)
I0909 03:22:02.542145 318950 net.cpp:137] Memory required for data: 1089822720
I0909 03:22:02.542147 318950 layer_factory.hpp:77] Creating layer conv4_3
I0909 03:22:02.542155 318950 net.cpp:84] Creating Layer conv4_3
I0909 03:22:02.542158 318950 net.cpp:406] conv4_3 <- conv4_2
I0909 03:22:02.542161 318950 net.cpp:380] conv4_3 -> conv4_3
I0909 03:22:02.548033 318950 net.cpp:122] Setting up conv4_3
I0909 03:22:02.548049 318950 net.cpp:129] Top shape: 10 512 28 28 (4014080)
I0909 03:22:02.548053 318950 net.cpp:137] Memory required for data: 1105879040
I0909 03:22:02.548059 318950 layer_factory.hpp:77] Creating layer relu4_3
I0909 03:22:02.548065 318950 net.cpp:84] Creating Layer relu4_3
I0909 03:22:02.548069 318950 net.cpp:406] relu4_3 <- conv4_3
I0909 03:22:02.548074 318950 net.cpp:367] relu4_3 -> conv4_3 (in-place)
I0909 03:22:02.549021 318950 net.cpp:122] Setting up relu4_3
I0909 03:22:02.549029 318950 net.cpp:129] Top shape: 10 512 28 28 (4014080)
I0909 03:22:02.549031 318950 net.cpp:137] Memory required for data: 1121935360
I0909 03:22:02.549034 318950 layer_factory.hpp:77] Creating layer pool4
I0909 03:22:02.549041 318950 net.cpp:84] Creating Layer pool4
I0909 03:22:02.549044 318950 net.cpp:406] pool4 <- conv4_3
I0909 03:22:02.549049 318950 net.cpp:380] pool4 -> pool4
I0909 03:22:02.549091 318950 net.cpp:122] Setting up pool4
I0909 03:22:02.549096 318950 net.cpp:129] Top shape: 10 512 14 14 (1003520)
I0909 03:22:02.549098 318950 net.cpp:137] Memory required for data: 1125949440
I0909 03:22:02.549101 318950 layer_factory.hpp:77] Creating layer conv5_1
I0909 03:22:02.549108 318950 net.cpp:84] Creating Layer conv5_1
I0909 03:22:02.549110 318950 net.cpp:406] conv5_1 <- pool4
I0909 03:22:02.549113 318950 net.cpp:380] conv5_1 -> conv5_1
I0909 03:22:02.555016 318950 net.cpp:122] Setting up conv5_1
I0909 03:22:02.555032 318950 net.cpp:129] Top shape: 10 512 14 14 (1003520)
I0909 03:22:02.555035 318950 net.cpp:137] Memory required for data: 1129963520
I0909 03:22:02.555042 318950 layer_factory.hpp:77] Creating layer relu5_1
I0909 03:22:02.555049 318950 net.cpp:84] Creating Layer relu5_1
I0909 03:22:02.555052 318950 net.cpp:406] relu5_1 <- conv5_1
I0909 03:22:02.555057 318950 net.cpp:367] relu5_1 -> conv5_1 (in-place)
I0909 03:22:02.555279 318950 net.cpp:122] Setting up relu5_1
I0909 03:22:02.555284 318950 net.cpp:129] Top shape: 10 512 14 14 (1003520)
I0909 03:22:02.555286 318950 net.cpp:137] Memory required for data: 1133977600
I0909 03:22:02.555289 318950 layer_factory.hpp:77] Creating layer conv5_2
I0909 03:22:02.555295 318950 net.cpp:84] Creating Layer conv5_2
I0909 03:22:02.555299 318950 net.cpp:406] conv5_2 <- conv5_1
I0909 03:22:02.555305 318950 net.cpp:380] conv5_2 -> conv5_2
I0909 03:22:02.561383 318950 net.cpp:122] Setting up conv5_2
I0909 03:22:02.561406 318950 net.cpp:129] Top shape: 10 512 14 14 (1003520)
I0909 03:22:02.561409 318950 net.cpp:137] Memory required for data: 1137991680
I0909 03:22:02.561416 318950 layer_factory.hpp:77] Creating layer relu5_2
I0909 03:22:02.561424 318950 net.cpp:84] Creating Layer relu5_2
I0909 03:22:02.561427 318950 net.cpp:406] relu5_2 <- conv5_2
I0909 03:22:02.561432 318950 net.cpp:367] relu5_2 -> conv5_2 (in-place)
I0909 03:22:02.561666 318950 net.cpp:122] Setting up relu5_2
I0909 03:22:02.561686 318950 net.cpp:129] Top shape: 10 512 14 14 (1003520)
I0909 03:22:02.561688 318950 net.cpp:137] Memory required for data: 1142005760
I0909 03:22:02.561691 318950 layer_factory.hpp:77] Creating layer conv5_3
I0909 03:22:02.561699 318950 net.cpp:84] Creating Layer conv5_3
I0909 03:22:02.561702 318950 net.cpp:406] conv5_3 <- conv5_2
I0909 03:22:02.561708 318950 net.cpp:380] conv5_3 -> conv5_3
I0909 03:22:02.567786 318950 net.cpp:122] Setting up conv5_3
I0909 03:22:02.567806 318950 net.cpp:129] Top shape: 10 512 14 14 (1003520)
I0909 03:22:02.567809 318950 net.cpp:137] Memory required for data: 1146019840
I0909 03:22:02.567816 318950 layer_factory.hpp:77] Creating layer relu5_3
I0909 03:22:02.567823 318950 net.cpp:84] Creating Layer relu5_3
I0909 03:22:02.567826 318950 net.cpp:406] relu5_3 <- conv5_3
I0909 03:22:02.567831 318950 net.cpp:367] relu5_3 -> conv5_3 (in-place)
I0909 03:22:02.568073 318950 net.cpp:122] Setting up relu5_3
I0909 03:22:02.568078 318950 net.cpp:129] Top shape: 10 512 14 14 (1003520)
I0909 03:22:02.568081 318950 net.cpp:137] Memory required for data: 1150033920
I0909 03:22:02.568084 318950 layer_factory.hpp:77] Creating layer pool5
I0909 03:22:02.568090 318950 net.cpp:84] Creating Layer pool5
I0909 03:22:02.568094 318950 net.cpp:406] pool5 <- conv5_3
I0909 03:22:02.568099 318950 net.cpp:380] pool5 -> pool5
I0909 03:22:02.568145 318950 net.cpp:122] Setting up pool5
I0909 03:22:02.568150 318950 net.cpp:129] Top shape: 10 512 7 7 (250880)
I0909 03:22:02.568152 318950 net.cpp:137] Memory required for data: 1151037440
I0909 03:22:02.568156 318950 layer_factory.hpp:77] Creating layer fc6
I0909 03:22:02.568167 318950 net.cpp:84] Creating Layer fc6
I0909 03:22:02.568171 318950 net.cpp:406] fc6 <- pool5
I0909 03:22:02.568174 318950 net.cpp:380] fc6 -> fc6
I0909 03:22:02.814802 318950 net.cpp:122] Setting up fc6
I0909 03:22:02.814863 318950 net.cpp:129] Top shape: 10 4096 (40960)
I0909 03:22:02.814867 318950 net.cpp:137] Memory required for data: 1151201280
I0909 03:22:02.814877 318950 layer_factory.hpp:77] Creating layer relu6
I0909 03:22:02.814885 318950 net.cpp:84] Creating Layer relu6
I0909 03:22:02.814889 318950 net.cpp:406] relu6 <- fc6
I0909 03:22:02.814898 318950 net.cpp:367] relu6 -> fc6 (in-place)
I0909 03:22:02.816319 318950 net.cpp:122] Setting up relu6
I0909 03:22:02.816334 318950 net.cpp:129] Top shape: 10 4096 (40960)
I0909 03:22:02.816336 318950 net.cpp:137] Memory required for data: 1151365120
I0909 03:22:02.816339 318950 layer_factory.hpp:77] Creating layer drop6
I0909 03:22:02.816349 318950 net.cpp:84] Creating Layer drop6
I0909 03:22:02.816354 318950 net.cpp:406] drop6 <- fc6
I0909 03:22:02.816357 318950 net.cpp:367] drop6 -> fc6 (in-place)
I0909 03:22:02.816404 318950 net.cpp:122] Setting up drop6
I0909 03:22:02.816408 318950 net.cpp:129] Top shape: 10 4096 (40960)
I0909 03:22:02.816411 318950 net.cpp:137] Memory required for data: 1151528960
I0909 03:22:02.816413 318950 layer_factory.hpp:77] Creating layer fc7
I0909 03:22:02.816418 318950 net.cpp:84] Creating Layer fc7
I0909 03:22:02.816421 318950 net.cpp:406] fc7 <- fc6
I0909 03:22:02.816427 318950 net.cpp:380] fc7 -> fc7
I0909 03:22:02.856415 318950 net.cpp:122] Setting up fc7
I0909 03:22:02.856498 318950 net.cpp:129] Top shape: 10 4096 (40960)
I0909 03:22:02.856501 318950 net.cpp:137] Memory required for data: 1151692800
I0909 03:22:02.856513 318950 layer_factory.hpp:77] Creating layer relu7
I0909 03:22:02.856523 318950 net.cpp:84] Creating Layer relu7
I0909 03:22:02.856528 318950 net.cpp:406] relu7 <- fc7
I0909 03:22:02.856532 318950 net.cpp:367] relu7 -> fc7 (in-place)
I0909 03:22:02.856863 318950 net.cpp:122] Setting up relu7
I0909 03:22:02.856869 318950 net.cpp:129] Top shape: 10 4096 (40960)
I0909 03:22:02.856871 318950 net.cpp:137] Memory required for data: 1151856640
I0909 03:22:02.856875 318950 layer_factory.hpp:77] Creating layer drop7
I0909 03:22:02.856880 318950 net.cpp:84] Creating Layer drop7
I0909 03:22:02.856884 318950 net.cpp:406] drop7 <- fc7
I0909 03:22:02.856889 318950 net.cpp:367] drop7 -> fc7 (in-place)
I0909 03:22:02.856943 318950 net.cpp:122] Setting up drop7
I0909 03:22:02.856948 318950 net.cpp:129] Top shape: 10 4096 (40960)
I0909 03:22:02.856951 318950 net.cpp:137] Memory required for data: 1152020480
I0909 03:22:02.856953 318950 layer_factory.hpp:77] Creating layer fc8
I0909 03:22:02.856961 318950 net.cpp:84] Creating Layer fc8
I0909 03:22:02.856963 318950 net.cpp:406] fc8 <- fc7
I0909 03:22:02.856967 318950 net.cpp:380] fc8 -> fc8
I0909 03:22:02.867750 318950 net.cpp:122] Setting up fc8
I0909 03:22:02.867841 318950 net.cpp:129] Top shape: 10 1000 (10000)
I0909 03:22:02.867843 318950 net.cpp:137] Memory required for data: 1152060480
I0909 03:22:02.867852 318950 layer_factory.hpp:77] Creating layer prob
I0909 03:22:02.867863 318950 net.cpp:84] Creating Layer prob
I0909 03:22:02.867867 318950 net.cpp:406] prob <- fc8
I0909 03:22:02.867873 318950 net.cpp:380] prob -> prob
I0909 03:22:02.868235 318950 net.cpp:122] Setting up prob
I0909 03:22:02.868242 318950 net.cpp:129] Top shape: 10 1000 (10000)
I0909 03:22:02.868244 318950 net.cpp:137] Memory required for data: 1152100480
I0909 03:22:02.868247 318950 net.cpp:200] prob does not need backward computation.
I0909 03:22:02.868250 318950 net.cpp:200] fc8 does not need backward computation.
I0909 03:22:02.868253 318950 net.cpp:200] drop7 does not need backward computation.
I0909 03:22:02.868257 318950 net.cpp:200] relu7 does not need backward computation.
…
