…
snapshot: 15000
snapshot_prefix: "models/dstl"
test_initialization: false
average_loss: 20
iter_size: 1
I0910 04:20:02.086880 244981 solver.cpp:77] Creating training net from train_net file: trainval.prototxt
I0910 04:20:02.087944 244981 net.cpp:51] Initializing net from parameters: 
state {
  phase: TRAIN
}
layer {
  name: "data"
  type: "Python"
  top: "data"
  top: "sem"
  top: "geo"
  python_param {
    module: "dstl_layers"
    layer: "DstlSegDataLayer"
    param_str: "{\'dstl_dir\': \'../data/dstl\', \'seed\': 1337, \'split\': \'trainval\'}"
  }
}
layer {
  name: "conv1_1"
  type: "Convolution"
  bottom: "data"
  top: "conv1_1"
  param {
    lr_mult: 1
    decay_mult: 1
  }
  param {
    lr_mult: 2
    decay_mult: 0
  }
  convolution_param {
    num_output: 64
    pad: 100
    kernel_size: 3
    stride: 1
    engine: CAFFE
  }
}
layer {
  name: "relu1_1"
  type: "ReLU"
  bottom: "conv1_1"
  top: "conv1_1"
}
layer {
  name: "conv1_2"
  type: "Convolution"
  bottom: "conv1_1"
  top: "conv1_2"
  param {
    lr_mult: 1
    decay_mult: 1
  }
  param {
    lr_mult: 2
    decay_mult: 0
  }
  convolution_param {
    num_output: 64
    pad: 1
    kernel_size: 3
    stride: 1
    engine: CAFFE
  }
}
layer {
  name: "relu1_2"
  type: "ReLU"
  bottom: "conv1_2"
  top: "conv1_2"
}
layer {
  name: "pool1"
  type: "Pooling"
  bottom: "conv1_2"
  top: "pool1"
  pooling_param {
    pool: MAX
    kernel_size: 2
    stride: 2
  }
}
layer {
  name: "conv2_1"
  type: "Convolution"
  bottom: "pool1"
  top: "conv2_1"
  param {
    lr_mult: 1
    decay_mult: 1
  }
  param {
    lr_mult: 2
    decay_mult: 0
  }
  convolution_param {
    num_output: 128
    pad: 1
    kernel_size: 3
    stride: 1
    engine: CAFFE
  }
}
layer {
  name: "relu2_1"
  type: "ReLU"
  bottom: "conv2_1"
  top: "conv2_1"
}
layer {
  name: "conv2_2"
  type: "Convolution"
  bottom: "conv2_1"
  top: "conv2_2"
  param {
    lr_mult: 1
    decay_mult: 1
  }
  param {
    lr_mult: 2
    decay_mult: 0
  }
  convolution_param {
    num_output: 128
    pad: 1
    kernel_size: 3
    stride: 1
    engine: CAFFE
  }
}
layer {
  name: "relu2_2"
  type: "ReLU"
  bottom: "conv2_2"
  top: "conv2_2"
}
layer {
  name: "pool2"
  type: "Pooling"
  bottom: "conv2_2"
  top: "pool2"
  pooling_param {
    pool: MAX
    kernel_size: 2
    stride: 2
  }
}
layer {
  name: "conv3_1"
  type: "Convolution"
  bottom: "pool2"
  top: "conv3_1"
  param {
    lr_mult: 1
    decay_mult: 1
  }
  param {
    lr_mult: 2
    decay_mult: 0
  }
  convolution_param {
    num_output: 256
    pad: 1
    kernel_size: 3
    stride: 1
    engine: CAFFE
  }
}
layer {
  name: "relu3_1"
  type: "ReLU"
  bottom: "conv3_1"
  top: "conv3_1"
}
layer {
  name: "conv3_2"
  type: "Convolution"
  bottom: "conv3_1"
  top: "conv3_2"
  param {
    lr_mult: 1
    decay_mult: 1
  }
  param {
    lr_mult: 2
    decay_mult: 0
  }
  convolution_param {
    num_output: 256
    pad: 1
    kernel_size: 3
    stride: 1
    engine: CAFFE
  }
}
layer {
  name: "relu3_2"
  type: "ReLU"
  bottom: "conv3_2"
  top: "conv3_2"
}
layer {
  name: "conv3_3"
  type: "Convolution"
  bottom: "conv3_2"
  top: "conv3_3"
  param {
    lr_mult: 1
    decay_mult: 1
  }
  param {
    lr_mult: 2
    decay_mult: 0
  }
  convolution_param {
    num_output: 256
    pad: 1
    kernel_size: 3
    stride: 1
    engine: CAFFE
  }
}
layer {
  name: "relu3_3"
  type: "ReLU"
  bottom: "conv3_3"
  top: "conv3_3"
}
layer {
  name: "pool3"
  type: "Pooling"
  bottom: "conv3_3"
  top: "pool3"
  pooling_param {
    pool: MAX
    kernel_size: 2
    stride: 2
  }
}
layer {
  name: "conv4_1"
  type: "Convolution"
  bottom: "pool3"
  top: "conv4_1"
  param {
    lr_mult: 1
    decay_mult: 1
  }
  param {
    lr_mult: 2
    decay_mult: 0
  }
  convolution_param {
    num_output: 512
    pad: 1
    kernel_size: 3
    stride: 1
    engine: CAFFE
  }
}
layer {
  name: "relu4_1"
  type: "ReLU"
  bottom: "conv4_1"
  top: "conv4_1"
}
layer {
  name: "conv4_2"
  type: "Convolution"
  bottom: "conv4_1"
  top: "conv4_2"
  param {
    lr_mult: 1
    decay_mult: 1
  }
  param {
    lr_mult: 2
    decay_mult: 0
  }
  convolution_param {
    num_output: 512
    pad: 1
    kernel_size: 3
    stride: 1
    engine: CAFFE
  }
}
layer {
  name: "relu4_2"
  type: "ReLU"
  bottom: "conv4_2"
  top: "conv4_2"
}
layer {
  name: "conv4_3"
  type: "Convolution"
  bottom: "conv4_2"
  top: "conv4_3"
  param {
    lr_mult: 1
    decay_mult: 1
  }
  param {
    lr_mult: 2
    decay_mult: 0
  }
  convolution_param {
    num_output: 512
    pad: 1
    kernel_size: 3
    stride: 1
    engine: CAFFE
  }
}
layer {
  name: "relu4_3"
  type: "ReLU"
  bottom: "conv4_3"
  top: "conv4_3"
}
layer {
  name: "pool4"
  type: "Pooling"
  bottom: "conv4_3"
  top: "pool4"
  pooling_param {
    pool: MAX
    kernel_size: 2
    stride: 2
  }
}
layer {
  name: "conv5_1"
  type: "Convolution"
  bottom: "pool4"
  top: "conv5_1"
  param {
    lr_mult: 1
    decay_mult: 1
  }
  param {
    lr_mult: 2
    decay_mult: 0
  }
  convolution_param {
    num_output: 512
    pad: 1
    kernel_size: 3
    stride: 1
    engine: CAFFE
  }
}
layer {
  name: "relu5_1"
  type: "ReLU"
  bottom: "conv5_1"
  top: "conv5_1"
}
layer {
  name: "conv5_2"
  type: "Convolution"
  bottom: "conv5_1"
  top: "conv5_2"
  param {
    lr_mult: 1
    decay_mult: 1
  }
  param {
    lr_mult: 2
    decay_mult: 0
  }
  convolution_param {
    num_output: 512
    pad: 1
    kernel_size: 3
    stride: 1
    engine: CAFFE
  }
}
layer {
  name: "relu5_2"
  type: "ReLU"
  bottom: "conv5_2"
  top: "conv5_2"
}
layer {
  name: "conv5_3"
  type: "Convolution"
  bottom: "conv5_2"
  top: "conv5_3"
  param {
    lr_mult: 1
    decay_mult: 1
  }
  param {
    lr_mult: 2
    decay_mult: 0
  }
  convolution_param {
    num_output: 512
    pad: 1
    kernel_size: 3
    stride: 1
    engine: CAFFE
  }
}
layer {
  name: "relu5_3"
  type: "ReLU"
  bottom: "conv5_3"
  top: "conv5_3"
}
layer {
  name: "pool5"
  type: "Pooling"
  bottom: "conv5_3"
  top: "pool5"
  pooling_param {
    pool: MAX
    kernel_size: 2
    stride: 2
  }
}
layer {
  name: "fc6"
  type: "Convolution"
  bottom: "pool5"
  top: "fc6"
  param {
    lr_mult: 1
    decay_mult: 1
  }
  param {
    lr_mult: 2
    decay_mult: 0
  }
  convolution_param {
    num_output: 4096
    pad: 0
    kernel_size: 7
    stride: 1
    engine: CAFFE
  }
}
layer {
  name: "relu6"
  type: "ReLU"
  bottom: "fc6"
  top: "fc6"
}
layer {
  name: "drop6"
  type: "Dropout"
  bottom: "fc6"
  top: "fc6"
  dropout_param {
    dropout_ratio: 0.5
  }
}
layer {
  name: "fc7"
  type: "Convolution"
  bottom: "fc6"
  top: "fc7"
  param {
    lr_mult: 1
    decay_mult: 1
  }
  param {
    lr_mult: 2
    decay_mult: 0
  }
  convolution_param {
    num_output: 4096
    pad: 0
    kernel_size: 1
    stride: 1
    engine: CAFFE
  }
}
layer {
  name: "relu7"
  type: "ReLU"
  bottom: "fc7"
  top: "fc7"
}
layer {
  name: "drop7"
  type: "Dropout"
  bottom: "fc7"
  top: "fc7"
  dropout_param {
    dropout_ratio: 0.5
  }
}
layer {
  name: "score_fr_sem"
  type: "Convolution"
  bottom: "fc7"
  top: "score_fr_sem"
  param {
    lr_mult: 1
    decay_mult: 1
  }
  param {
    lr_mult: 2
    decay_mult: 0
  }
  convolution_param {
    num_output: 11
    pad: 0
    kernel_size: 1
    engine: CAFFE
  }
}
layer {
  name: "upscore2_sem"
  type: "Deconvolution"
  bottom: "score_fr_sem"
  top: "upscore2_sem"
  param {
    lr_mult: 0
  }
  convolution_param {
    num_output: 11
    bias_term: false
    kernel_size: 4
    stride: 2
    engine: CAFFE
  }
}
layer {
  name: "score_pool4_sem"
  type: "Convolution"
  bottom: "pool4"
  top: "score_pool4_sem"
  param {
    lr_mult: 1
    decay_mult: 1
  }
  param {
    lr_mult: 2
    decay_mult: 0
  }
  convolution_param {
    num_output: 11
    pad: 0
    kernel_size: 1
    engine: CAFFE
  }
}
layer {
  name: "score_pool4_semc"
  type: "Crop"
  bottom: "score_pool4_sem"
  bottom: "upscore2_sem"
  top: "score_pool4_semc"
  crop_param {
    axis: 2
    offset: 5
  }
}
layer {
  name: "fuse_pool4_sem"
  type: "Eltwise"
  bottom: "upscore2_sem"
  bottom: "score_pool4_semc"
  top: "fuse_pool4_sem"
  eltwise_param {
    operation: SUM
  }
}
layer {
  name: "upscore16_sem"
  type: "Deconvolution"
  bottom: "fuse_pool4_sem"
  top: "upscore16_sem"
  param {
    lr_mult: 0
  }
  convolution_param {
    num_output: 11
    bias_term: false
    kernel_size: 32
    stride: 16
    engine: CAFFE
  }
}
layer {
  name: "score_sem"
  type: "Crop"
  bottom: "upscore16_sem"
  bottom: "data"
  top: "score_sem"
  crop_param {
    axis: 2
    offset: 27
  }
}
layer {
  name: "loss"
  type: "SoftmaxWithLoss"
  bottom: "score_sem"
  bottom: "sem"
  top: "loss"
  loss_param {
    normalize: false
  }
}
layer {
  name: "score_fr_geo"
  type: "Convolution"
  bottom: "fc7"
  top: "score_fr_geo"
  param {
    lr_mult: 1
    decay_mult: 1
  }
  param {
    lr_mult: 2
    decay_mult: 0
  }
  convolution_param {
    num_output: 3
    pad: 0
    kernel_size: 1
    engine: CAFFE
  }
}
layer {
  name: "upscore2_geo"
  type: "Deconvolution"
  bottom: "score_fr_geo"
  top: "upscore2_geo"
  param {
    lr_mult: 0
  }
  convolution_param {
    num_output: 3
    bias_term: false
    kernel_size: 4
    stride: 2
    engine: CAFFE
  }
}
layer {
  name: "score_pool4_geo"
  type: "Convolution"
  bottom: "pool4"
  top: "score_pool4_geo"
  param {
    lr_mult: 1
    decay_mult: 1
  }
  param {
    lr_mult: 2
    decay_mult: 0
  }
  convolution_param {
    num_output: 3
    pad: 0
    kernel_size: 1
    engine: CAFFE
  }
}
layer {
  name: "score_pool4_geoc"
  type: "Crop"
  bottom: "score_pool4_geo"
  bottom: "upscore2_geo"
  top: "score_pool4_geoc"
  crop_param {
    axis: 2
    offset: 5
  }
}
layer {
  name: "fuse_pool4_geo"
  type: "Eltwise"
  bottom: "upscore2_geo"
  bottom: "score_pool4_geoc"
  top: "fuse_pool4_geo"
  eltwise_param {
    operation: SUM
  }
}
layer {
  name: "upscore16_geo"
  type: "Deconvolution"
  bottom: "fuse_pool4_geo"
  top: "upscore16_geo"
  param {
    lr_mult: 0
  }
  convolution_param {
    num_output: 3
    bias_term: false
    kernel_size: 32
    stride: 16
    engine: CAFFE
  }
}
layer {
  name: "score_geo"
  type: "Crop"
  bottom: "upscore16_geo"
  bottom: "data"
  top: "score_geo"
  crop_param {
    axis: 2
    offset: 27
  }
}
layer {
  name: "loss_geo"
  type: "SoftmaxWithLoss"
  bottom: "score_geo"
  bottom: "geo"
  top: "loss_geo"
  loss_param {
    normalize: false
  }
}
I0910 04:20:02.088315 244981 layer_factory.hpp:77] Creating layer data
I0910 04:20:02.117300 244981 net.cpp:84] Creating Layer data
I0910 04:20:02.117398 244981 net.cpp:380] data -> data
I0910 04:20:02.117429 244981 net.cpp:380] data -> sem
I0910 04:20:02.117442 244981 net.cpp:380] data -> geo
I0910 04:20:02.159337 244981 net.cpp:122] Setting up data
I0910 04:20:02.159406 244981 net.cpp:129] Top shape: 1 3 512 512 (786432)
I0910 04:20:02.159411 244981 net.cpp:129] Top shape: 1 1 512 512 (262144)
I0910 04:20:02.159415 244981 net.cpp:129] Top shape: 1 1 512 512 (262144)
I0910 04:20:02.159417 244981 net.cpp:137] Memory required for data: 5242880
I0910 04:20:02.159426 244981 layer_factory.hpp:77] Creating layer data_data_0_split
I0910 04:20:02.159449 244981 net.cpp:84] Creating Layer data_data_0_split
I0910 04:20:02.159456 244981 net.cpp:406] data_data_0_split <- data
I0910 04:20:02.159466 244981 net.cpp:380] data_data_0_split -> data_data_0_split_0
I0910 04:20:02.159479 244981 net.cpp:380] data_data_0_split -> data_data_0_split_1
I0910 04:20:02.159492 244981 net.cpp:380] data_data_0_split -> data_data_0_split_2
I0910 04:20:02.159543 244981 net.cpp:122] Setting up data_data_0_split
I0910 04:20:02.159548 244981 net.cpp:129] Top shape: 1 3 512 512 (786432)
I0910 04:20:02.159551 244981 net.cpp:129] Top shape: 1 3 512 512 (786432)
I0910 04:20:02.159554 244981 net.cpp:129] Top shape: 1 3 512 512 (786432)
I0910 04:20:02.159557 244981 net.cpp:137] Memory required for data: 14680064
I0910 04:20:02.159575 244981 layer_factory.hpp:77] Creating layer conv1_1
I0910 04:20:02.159605 244981 net.cpp:84] Creating Layer conv1_1
I0910 04:20:02.159608 244981 net.cpp:406] conv1_1 <- data_data_0_split_0
I0910 04:20:02.159613 244981 net.cpp:380] conv1_1 -> conv1_1
I0910 04:20:02.162497 244981 net.cpp:122] Setting up conv1_1
I0910 04:20:02.162528 244981 net.cpp:129] Top shape: 1 64 710 710 (32262400)
I0910 04:20:02.162531 244981 net.cpp:137] Memory required for data: 143729664
I0910 04:20:02.162551 244981 layer_factory.hpp:77] Creating layer relu1_1
I0910 04:20:02.162569 244981 net.cpp:84] Creating Layer relu1_1
I0910 04:20:02.162575 244981 net.cpp:406] relu1_1 <- conv1_1
I0910 04:20:02.162581 244981 net.cpp:367] relu1_1 -> conv1_1 (in-place)
I0910 04:20:02.905505 244981 net.cpp:122] Setting up relu1_1
I0910 04:20:02.905544 244981 net.cpp:129] Top shape: 1 64 710 710 (32262400)
I0910 04:20:02.905547 244981 net.cpp:137] Memory required for data: 272779264
I0910 04:20:02.905553 244981 layer_factory.hpp:77] Creating layer conv1_2
I0910 04:20:02.905575 244981 net.cpp:84] Creating Layer conv1_2
I0910 04:20:02.905580 244981 net.cpp:406] conv1_2 <- conv1_1
I0910 04:20:02.905587 244981 net.cpp:380] conv1_2 -> conv1_2
I0910 04:20:02.908861 244981 net.cpp:122] Setting up conv1_2
I0910 04:20:02.908895 244981 net.cpp:129] Top shape: 1 64 710 710 (32262400)
I0910 04:20:02.908900 244981 net.cpp:137] Memory required for data: 401828864
I0910 04:20:02.908924 244981 layer_factory.hpp:77] Creating layer relu1_2
I0910 04:20:02.908948 244981 net.cpp:84] Creating Layer relu1_2
I0910 04:20:02.908955 244981 net.cpp:406] relu1_2 <- conv1_2
I0910 04:20:02.908968 244981 net.cpp:367] relu1_2 -> conv1_2 (in-place)
I0910 04:20:02.909276 244981 net.cpp:122] Setting up relu1_2
I0910 04:20:02.909284 244981 net.cpp:129] Top shape: 1 64 710 710 (32262400)
I0910 04:20:02.909287 244981 net.cpp:137] Memory required for data: 530878464
I0910 04:20:02.909292 244981 layer_factory.hpp:77] Creating layer pool1
I0910 04:20:02.909302 244981 net.cpp:84] Creating Layer pool1
I0910 04:20:02.909307 244981 net.cpp:406] pool1 <- conv1_2
I0910 04:20:02.909313 244981 net.cpp:380] pool1 -> pool1
I0910 04:20:02.909394 244981 net.cpp:122] Setting up pool1
I0910 04:20:02.909400 244981 net.cpp:129] Top shape: 1 64 355 355 (8065600)
I0910 04:20:02.909404 244981 net.cpp:137] Memory required for data: 563140864
I0910 04:20:02.909409 244981 layer_factory.hpp:77] Creating layer conv2_1
I0910 04:20:02.909426 244981 net.cpp:84] Creating Layer conv2_1
I0910 04:20:02.909430 244981 net.cpp:406] conv2_1 <- pool1
I0910 04:20:02.909436 244981 net.cpp:380] conv2_1 -> conv2_1
I0910 04:20:02.911075 244981 net.cpp:122] Setting up conv2_1
I0910 04:20:02.911092 244981 net.cpp:129] Top shape: 1 128 355 355 (16131200)
I0910 04:20:02.911096 244981 net.cpp:137] Memory required for data: 627665664
I0910 04:20:02.911108 244981 layer_factory.hpp:77] Creating layer relu2_1
I0910 04:20:02.911118 244981 net.cpp:84] Creating Layer relu2_1
I0910 04:20:02.911121 244981 net.cpp:406] relu2_1 <- conv2_1
I0910 04:20:02.911128 244981 net.cpp:367] relu2_1 -> conv2_1 (in-place)
I0910 04:20:02.911360 244981 net.cpp:122] Setting up relu2_1
I0910 04:20:02.911368 244981 net.cpp:129] Top shape: 1 128 355 355 (16131200)
I0910 04:20:02.911371 244981 net.cpp:137] Memory required for data: 692190464
I0910 04:20:02.911375 244981 layer_factory.hpp:77] Creating layer conv2_2
I0910 04:20:02.911384 244981 net.cpp:84] Creating Layer conv2_2
I0910 04:20:02.911388 244981 net.cpp:406] conv2_2 <- conv2_1
I0910 04:20:02.911396 244981 net.cpp:380] conv2_2 -> conv2_2
I0910 04:20:02.911856 244981 net.cpp:122] Setting up conv2_2
I0910 04:20:02.911866 244981 net.cpp:129] Top shape: 1 128 355 355 (16131200)
I0910 04:20:02.911870 244981 net.cpp:137] Memory required for data: 756715264
I0910 04:20:02.911876 244981 layer_factory.hpp:77] Creating layer relu2_2
I0910 04:20:02.911882 244981 net.cpp:84] Creating Layer relu2_2
I0910 04:20:02.911886 244981 net.cpp:406] relu2_2 <- conv2_2
I0910 04:20:02.911891 244981 net.cpp:367] relu2_2 -> conv2_2 (in-place)
I0910 04:20:02.913038 244981 net.cpp:122] Setting up relu2_2
I0910 04:20:02.913058 244981 net.cpp:129] Top shape: 1 128 355 355 (16131200)
I0910 04:20:02.913061 244981 net.cpp:137] Memory required for data: 821240064
I0910 04:20:02.913065 244981 layer_factory.hpp:77] Creating layer pool2
I0910 04:20:02.913074 244981 net.cpp:84] Creating Layer pool2
I0910 04:20:02.913079 244981 net.cpp:406] pool2 <- conv2_2
I0910 04:20:02.913084 244981 net.cpp:380] pool2 -> pool2
I0910 04:20:02.913144 244981 net.cpp:122] Setting up pool2
I0910 04:20:02.913149 244981 net.cpp:129] Top shape: 1 128 178 178 (4055552)
I0910 04:20:02.913153 244981 net.cpp:137] Memory required for data: 837462272
I0910 04:20:02.913156 244981 layer_factory.hpp:77] Creating layer conv3_1
I0910 04:20:02.913166 244981 net.cpp:84] Creating Layer conv3_1
I0910 04:20:02.913170 244981 net.cpp:406] conv3_1 <- pool2
I0910 04:20:02.913177 244981 net.cpp:380] conv3_1 -> conv3_1
I0910 04:20:02.914893 244981 net.cpp:122] Setting up conv3_1
I0910 04:20:02.914908 244981 net.cpp:129] Top shape: 1 256 178 178 (8111104)
I0910 04:20:02.914912 244981 net.cpp:137] Memory required for data: 869906688
I0910 04:20:02.914924 244981 layer_factory.hpp:77] Creating layer relu3_1
I0910 04:20:02.914932 244981 net.cpp:84] Creating Layer relu3_1
I0910 04:20:02.914937 244981 net.cpp:406] relu3_1 <- conv3_1
I0910 04:20:02.914942 244981 net.cpp:367] relu3_1 -> conv3_1 (in-place)
I0910 04:20:02.915169 244981 net.cpp:122] Setting up relu3_1
I0910 04:20:02.915175 244981 net.cpp:129] Top shape: 1 256 178 178 (8111104)
I0910 04:20:02.915179 244981 net.cpp:137] Memory required for data: 902351104
I0910 04:20:02.915182 244981 layer_factory.hpp:77] Creating layer conv3_2
I0910 04:20:02.915192 244981 net.cpp:84] Creating Layer conv3_2
I0910 04:20:02.915196 244981 net.cpp:406] conv3_2 <- conv3_1
I0910 04:20:02.915201 244981 net.cpp:380] conv3_2 -> conv3_2
I0910 04:20:02.917361 244981 net.cpp:122] Setting up conv3_2
I0910 04:20:02.917376 244981 net.cpp:129] Top shape: 1 256 178 178 (8111104)
I0910 04:20:02.917381 244981 net.cpp:137] Memory required for data: 934795520
I0910 04:20:02.917387 244981 layer_factory.hpp:77] Creating layer relu3_2
I0910 04:20:02.917394 244981 net.cpp:84] Creating Layer relu3_2
I0910 04:20:02.917398 244981 net.cpp:406] relu3_2 <- conv3_2
I0910 04:20:02.917407 244981 net.cpp:367] relu3_2 -> conv3_2 (in-place)
I0910 04:20:02.917639 244981 net.cpp:122] Setting up relu3_2
I0910 04:20:02.917646 244981 net.cpp:129] Top shape: 1 256 178 178 (8111104)
I0910 04:20:02.917649 244981 net.cpp:137] Memory required for data: 967239936
I0910 04:20:02.917654 244981 layer_factory.hpp:77] Creating layer conv3_3
I0910 04:20:02.917667 244981 net.cpp:84] Creating Layer conv3_3
I0910 04:20:02.917671 244981 net.cpp:406] conv3_3 <- conv3_2
I0910 04:20:02.917678 244981 net.cpp:380] conv3_3 -> conv3_3
I0910 04:20:02.919782 244981 net.cpp:122] Setting up conv3_3
I0910 04:20:02.919797 244981 net.cpp:129] Top shape: 1 256 178 178 (8111104)
I0910 04:20:02.919801 244981 net.cpp:137] Memory required for data: 999684352
I0910 04:20:02.919809 244981 layer_factory.hpp:77] Creating layer relu3_3
I0910 04:20:02.919816 244981 net.cpp:84] Creating Layer relu3_3
I0910 04:20:02.919821 244981 net.cpp:406] relu3_3 <- conv3_3
I0910 04:20:02.919827 244981 net.cpp:367] relu3_3 -> conv3_3 (in-place)
I0910 04:20:02.920110 244981 net.cpp:122] Setting up relu3_3
I0910 04:20:02.920119 244981 net.cpp:129] Top shape: 1 256 178 178 (8111104)
I0910 04:20:02.920121 244981 net.cpp:137] Memory required for data: 1032128768
I0910 04:20:02.920125 244981 layer_factory.hpp:77] Creating layer pool3
I0910 04:20:02.920136 244981 net.cpp:84] Creating Layer pool3
I0910 04:20:02.920140 244981 net.cpp:406] pool3 <- conv3_3
I0910 04:20:02.920145 244981 net.cpp:380] pool3 -> pool3
I0910 04:20:02.920192 244981 net.cpp:122] Setting up pool3
I0910 04:20:02.920197 244981 net.cpp:129] Top shape: 1 256 89 89 (2027776)
I0910 04:20:02.920202 244981 net.cpp:137] Memory required for data: 1040239872
I0910 04:20:02.920204 244981 layer_factory.hpp:77] Creating layer conv4_1
I0910 04:20:02.920222 244981 net.cpp:84] Creating Layer conv4_1
I0910 04:20:02.920225 244981 net.cpp:406] conv4_1 <- pool3
I0910 04:20:02.920231 244981 net.cpp:380] conv4_1 -> conv4_1
I0910 04:20:02.925748 244981 net.cpp:122] Setting up conv4_1
I0910 04:20:02.925767 244981 net.cpp:129] Top shape: 1 512 89 89 (4055552)
I0910 04:20:02.925770 244981 net.cpp:137] Memory required for data: 1056462080
I0910 04:20:02.925783 244981 layer_factory.hpp:77] Creating layer relu4_1
I0910 04:20:02.925794 244981 net.cpp:84] Creating Layer relu4_1
I0910 04:20:02.925799 244981 net.cpp:406] relu4_1 <- conv4_1
I0910 04:20:02.925812 244981 net.cpp:367] relu4_1 -> conv4_1 (in-place)
I0910 04:20:02.926854 244981 net.cpp:122] Setting up relu4_1
I0910 04:20:02.926873 244981 net.cpp:129] Top shape: 1 512 89 89 (4055552)
I0910 04:20:02.926877 244981 net.cpp:137] Memory required for data: 1072684288
I0910 04:20:02.926880 244981 layer_factory.hpp:77] Creating layer conv4_2
I0910 04:20:02.926901 244981 net.cpp:84] Creating Layer conv4_2
I0910 04:20:02.926906 244981 net.cpp:406] conv4_2 <- conv4_1
I0910 04:20:02.926914 244981 net.cpp:380] conv4_2 -> conv4_2
I0910 04:20:02.934175 244981 net.cpp:122] Setting up conv4_2
I0910 04:20:02.934229 244981 net.cpp:129] Top shape: 1 512 89 89 (4055552)
I0910 04:20:02.934233 244981 net.cpp:137] Memory required for data: 1088906496
I0910 04:20:02.934265 244981 layer_factory.hpp:77] Creating layer relu4_2
I0910 04:20:02.934273 244981 net.cpp:84] Creating Layer relu4_2
I0910 04:20:02.934278 244981 net.cpp:406] relu4_2 <- conv4_2
I0910 04:20:02.934283 244981 net.cpp:367] relu4_2 -> conv4_2 (in-place)
I0910 04:20:02.934552 244981 net.cpp:122] Setting up relu4_2
I0910 04:20:02.934557 244981 net.cpp:129] Top shape: 1 512 89 89 (4055552)
I0910 04:20:02.934561 244981 net.cpp:137] Memory required for data: 1105128704
I0910 04:20:02.934562 244981 layer_factory.hpp:77] Creating layer conv4_3
I0910 04:20:02.934578 244981 net.cpp:84] Creating Layer conv4_3
I0910 04:20:02.934581 244981 net.cpp:406] conv4_3 <- conv4_2
I0910 04:20:02.934592 244981 net.cpp:380] conv4_3 -> conv4_3
I0910 04:20:02.941169 244981 net.cpp:122] Setting up conv4_3
I0910 04:20:02.941222 244981 net.cpp:129] Top shape: 1 512 89 89 (4055552)
I0910 04:20:02.941226 244981 net.cpp:137] Memory required for data: 1121350912
I0910 04:20:02.941248 244981 layer_factory.hpp:77] Creating layer relu4_3
I0910 04:20:02.941267 244981 net.cpp:84] Creating Layer relu4_3
I0910 04:20:02.941273 244981 net.cpp:406] relu4_3 <- conv4_3
I0910 04:20:02.941283 244981 net.cpp:367] relu4_3 -> conv4_3 (in-place)
I0910 04:20:02.941602 244981 net.cpp:122] Setting up relu4_3
I0910 04:20:02.941607 244981 net.cpp:129] Top shape: 1 512 89 89 (4055552)
I0910 04:20:02.941609 244981 net.cpp:137] Memory required for data: 1137573120
I0910 04:20:02.941612 244981 layer_factory.hpp:77] Creating layer pool4
I0910 04:20:02.941618 244981 net.cpp:84] Creating Layer pool4
I0910 04:20:02.941622 244981 net.cpp:406] pool4 <- conv4_3
I0910 04:20:02.941627 244981 net.cpp:380] pool4 -> pool4
I0910 04:20:02.941663 244981 net.cpp:122] Setting up pool4
I0910 04:20:02.941666 244981 net.cpp:129] Top shape: 1 512 45 45 (1036800)
I0910 04:20:02.941668 244981 net.cpp:137] Memory required for data: 1141720320
I0910 04:20:02.941671 244981 layer_factory.hpp:77] Creating layer pool4_pool4_0_split
I0910 04:20:02.941679 244981 net.cpp:84] Creating Layer pool4_pool4_0_split
I0910 04:20:02.941681 244981 net.cpp:406] pool4_pool4_0_split <- pool4
I0910 04:20:02.941686 244981 net.cpp:380] pool4_pool4_0_split -> pool4_pool4_0_split_0
I0910 04:20:02.941691 244981 net.cpp:380] pool4_pool4_0_split -> pool4_pool4_0_split_1
I0910 04:20:02.941696 244981 net.cpp:380] pool4_pool4_0_split -> pool4_pool4_0_split_2
I0910 04:20:02.941732 244981 net.cpp:122] Setting up pool4_pool4_0_split
I0910 04:20:02.941736 244981 net.cpp:129] Top shape: 1 512 45 45 (1036800)
I0910 04:20:02.941740 244981 net.cpp:129] Top shape: 1 512 45 45 (1036800)
I0910 04:20:02.941742 244981 net.cpp:129] Top shape: 1 512 45 45 (1036800)
I0910 04:20:02.941752 244981 net.cpp:137] Memory required for data: 1154161920
I0910 04:20:02.941754 244981 layer_factory.hpp:77] Creating layer conv5_1
I0910 04:20:02.941763 244981 net.cpp:84] Creating Layer conv5_1
I0910 04:20:02.941766 244981 net.cpp:406] conv5_1 <- pool4_pool4_0_split_0
I0910 04:20:02.941772 244981 net.cpp:380] conv5_1 -> conv5_1
I0910 04:20:02.948866 244981 net.cpp:122] Setting up conv5_1
I0910 04:20:02.948899 244981 net.cpp:129] Top shape: 1 512 45 45 (1036800)
I0910 04:20:02.948904 244981 net.cpp:137] Memory required for data: 1158309120
I0910 04:20:02.948925 244981 layer_factory.hpp:77] Creating layer relu5_1
I0910 04:20:02.948940 244981 net.cpp:84] Creating Layer relu5_1
I0910 04:20:02.948945 244981 net.cpp:406] relu5_1 <- conv5_1
I0910 04:20:02.948952 244981 net.cpp:367] relu5_1 -> conv5_1 (in-place)
I0910 04:20:02.950098 244981 net.cpp:122] Setting up relu5_1
I0910 04:20:02.950106 244981 net.cpp:129] Top shape: 1 512 45 45 (1036800)
I0910 04:20:02.950109 244981 net.cpp:137] Memory required for data: 1162456320
I0910 04:20:02.950112 244981 layer_factory.hpp:77] Creating layer conv5_2
I0910 04:20:02.950122 244981 net.cpp:84] Creating Layer conv5_2
I0910 04:20:02.950125 244981 net.cpp:406] conv5_2 <- conv5_1
I0910 04:20:02.950130 244981 net.cpp:380] conv5_2 -> conv5_2
I0910 04:20:02.957970 244981 net.cpp:122] Setting up conv5_2
I0910 04:20:02.958004 244981 net.cpp:129] Top shape: 1 512 45 45 (1036800)
I0910 04:20:02.958007 244981 net.cpp:137] Memory required for data: 1166603520
I0910 04:20:02.958027 244981 layer_factory.hpp:77] Creating layer relu5_2
I0910 04:20:02.958040 244981 net.cpp:84] Creating Layer relu5_2
I0910 04:20:02.958047 244981 net.cpp:406] relu5_2 <- conv5_2
I0910 04:20:02.958058 244981 net.cpp:367] relu5_2 -> conv5_2 (in-place)
I0910 04:20:02.958360 244981 net.cpp:122] Setting up relu5_2
I0910 04:20:02.958365 244981 net.cpp:129] Top shape: 1 512 45 45 (1036800)
I0910 04:20:02.958369 244981 net.cpp:137] Memory required for data: 1170750720
I0910 04:20:02.958370 244981 layer_factory.hpp:77] Creating layer conv5_3
I0910 04:20:02.958390 244981 net.cpp:84] Creating Layer conv5_3
I0910 04:20:02.958392 244981 net.cpp:406] conv5_3 <- conv5_2
I0910 04:20:02.958400 244981 net.cpp:380] conv5_3 -> conv5_3
I0910 04:20:02.964627 244981 net.cpp:122] Setting up conv5_3
I0910 04:20:02.964649 244981 net.cpp:129] Top shape: 1 512 45 45 (1036800)
I0910 04:20:02.964651 244981 net.cpp:137] Memory required for data: 1174897920
I0910 04:20:02.964660 244981 layer_factory.hpp:77] Creating layer relu5_3
I0910 04:20:02.964674 244981 net.cpp:84] Creating Layer relu5_3
I0910 04:20:02.964678 244981 net.cpp:406] relu5_3 <- conv5_3
I0910 04:20:02.964682 244981 net.cpp:367] relu5_3 -> conv5_3 (in-place)
I0910 04:20:02.964902 244981 net.cpp:122] Setting up relu5_3
I0910 04:20:02.964907 244981 net.cpp:129] Top shape: 1 512 45 45 (1036800)
I0910 04:20:02.964910 244981 net.cpp:137] Memory required for data: 1179045120
I0910 04:20:02.964912 244981 layer_factory.hpp:77] Creating layer pool5
I0910 04:20:02.964918 244981 net.cpp:84] Creating Layer pool5
I0910 04:20:02.964921 244981 net.cpp:406] pool5 <- conv5_3
I0910 04:20:02.964926 244981 net.cpp:380] pool5 -> pool5
I0910 04:20:02.964965 244981 net.cpp:122] Setting up pool5
I0910 04:20:02.964969 244981 net.cpp:129] Top shape: 1 512 23 23 (270848)
I0910 04:20:02.964972 244981 net.cpp:137] Memory required for data: 1180128512
I0910 04:20:02.964974 244981 layer_factory.hpp:77] Creating layer fc6
I0910 04:20:02.964982 244981 net.cpp:84] Creating Layer fc6
I0910 04:20:02.964985 244981 net.cpp:406] fc6 <- pool5
I0910 04:20:02.964993 244981 net.cpp:380] fc6 -> fc6
I0910 04:20:03.474723 244981 net.cpp:122] Setting up fc6
I0910 04:20:03.474776 244981 net.cpp:129] Top shape: 1 4096 17 17 (1183744)
I0910 04:20:03.474779 244981 net.cpp:137] Memory required for data: 1184863488
I0910 04:20:03.474789 244981 layer_factory.hpp:77] Creating layer relu6
I0910 04:20:03.474802 244981 net.cpp:84] Creating Layer relu6
I0910 04:20:03.474807 244981 net.cpp:406] relu6 <- fc6
I0910 04:20:03.474822 244981 net.cpp:367] relu6 -> fc6 (in-place)
I0910 04:20:03.476028 244981 net.cpp:122] Setting up relu6
I0910 04:20:03.476042 244981 net.cpp:129] Top shape: 1 4096 17 17 (1183744)
I0910 04:20:03.476045 244981 net.cpp:137] Memory required for data: 1189598464
I0910 04:20:03.476048 244981 layer_factory.hpp:77] Creating layer drop6
I0910 04:20:03.476056 244981 net.cpp:84] Creating Layer drop6
I0910 04:20:03.476060 244981 net.cpp:406] drop6 <- fc6
I0910 04:20:03.476065 244981 net.cpp:367] drop6 -> fc6 (in-place)
I0910 04:20:03.476107 244981 net.cpp:122] Setting up drop6
I0910 04:20:03.476111 244981 net.cpp:129] Top shape: 1 4096 17 17 (1183744)
I0910 04:20:03.476114 244981 net.cpp:137] Memory required for data: 1194333440
I0910 04:20:03.476116 244981 layer_factory.hpp:77] Creating layer fc7
I0910 04:20:03.476127 244981 net.cpp:84] Creating Layer fc7
I0910 04:20:03.476130 244981 net.cpp:406] fc7 <- fc6
I0910 04:20:03.476135 244981 net.cpp:380] fc7 -> fc7
I0910 04:20:03.517618 244981 net.cpp:122] Setting up fc7
I0910 04:20:03.517658 244981 net.cpp:129] Top shape: 1 4096 17 17 (1183744)
I0910 04:20:03.517662 244981 net.cpp:137] Memory required for data: 1199068416
I0910 04:20:03.517670 244981 layer_factory.hpp:77] Creating layer relu7
I0910 04:20:03.517683 244981 net.cpp:84] Creating Layer relu7
I0910 04:20:03.517688 244981 net.cpp:406] relu7 <- fc7
I0910 04:20:03.517693 244981 net.cpp:367] relu7 -> fc7 (in-place)
I0910 04:20:03.517963 244981 net.cpp:122] Setting up relu7
I0910 04:20:03.517969 244981 net.cpp:129] Top shape: 1 4096 17 17 (1183744)
I0910 04:20:03.517972 244981 net.cpp:137] Memory required for data: 1203803392
I0910 04:20:03.517974 244981 layer_factory.hpp:77] Creating layer drop7
I0910 04:20:03.517982 244981 net.cpp:84] Creating Layer drop7
I0910 04:20:03.517984 244981 net.cpp:406] drop7 <- fc7
I0910 04:20:03.517990 244981 net.cpp:367] drop7 -> fc7 (in-place)
I0910 04:20:03.518012 244981 net.cpp:122] Setting up drop7
I0910 04:20:03.518015 244981 net.cpp:129] Top shape: 1 4096 17 17 (1183744)
I0910 04:20:03.518018 244981 net.cpp:137] Memory required for data: 1208538368
I0910 04:20:03.518021 244981 layer_factory.hpp:77] Creating layer fc7_drop7_0_split
I0910 04:20:03.518028 244981 net.cpp:84] Creating Layer fc7_drop7_0_split
I0910 04:20:03.518031 244981 net.cpp:406] fc7_drop7_0_split <- fc7
I0910 04:20:03.518035 244981 net.cpp:380] fc7_drop7_0_split -> fc7_drop7_0_split_0
I0910 04:20:03.518040 244981 net.cpp:380] fc7_drop7_0_split -> fc7_drop7_0_split_1
I0910 04:20:03.518072 244981 net.cpp:122] Setting up fc7_drop7_0_split
I0910 04:20:03.518076 244981 net.cpp:129] Top shape: 1 4096 17 17 (1183744)
I0910 04:20:03.518079 244981 net.cpp:129] Top shape: 1 4096 17 17 (1183744)
I0910 04:20:03.518081 244981 net.cpp:137] Memory required for data: 1218008320
I0910 04:20:03.518085 244981 layer_factory.hpp:77] Creating layer score_fr_sem
I0910 04:20:03.518095 244981 net.cpp:84] Creating Layer score_fr_sem
I0910 04:20:03.518097 244981 net.cpp:406] score_fr_sem <- fc7_drop7_0_split_0
I0910 04:20:03.518103 244981 net.cpp:380] score_fr_sem -> score_fr_sem
I0910 04:20:03.518407 244981 net.cpp:122] Setting up score_fr_sem
I0910 04:20:03.518412 244981 net.cpp:129] Top shape: 1 11 17 17 (3179)
I0910 04:20:03.518414 244981 net.cpp:137] Memory required for data: 1218021036
I0910 04:20:03.518419 244981 layer_factory.hpp:77] Creating layer upscore2_sem
I0910 04:20:03.518426 244981 net.cpp:84] Creating Layer upscore2_sem
I0910 04:20:03.518429 244981 net.cpp:406] upscore2_sem <- score_fr_sem
I0910 04:20:03.518435 244981 net.cpp:380] upscore2_sem -> upscore2_sem
I0910 04:20:03.518599 244981 net.cpp:122] Setting up upscore2_sem
I0910 04:20:03.518604 244981 net.cpp:129] Top shape: 1 11 36 36 (14256)
I0910 04:20:03.518606 244981 net.cpp:137] Memory required for data: 1218078060
I0910 04:20:03.518618 244981 layer_factory.hpp:77] Creating layer upscore2_sem_upscore2_sem_0_split
I0910 04:20:03.518623 244981 net.cpp:84] Creating Layer upscore2_sem_upscore2_sem_0_split
I0910 04:20:03.518625 244981 net.cpp:406] upscore2_sem_upscore2_sem_0_split <- upscore2_sem
I0910 04:20:03.518640 244981 net.cpp:380] upscore2_sem_upscore2_sem_0_split -> upscore2_sem_upscore2_sem_0_split_0
I0910 04:20:03.518651 244981 net.cpp:380] upscore2_sem_upscore2_sem_0_split -> upscore2_sem_upscore2_sem_0_split_1
I0910 04:20:03.518679 244981 net.cpp:122] Setting up upscore2_sem_upscore2_sem_0_split
I0910 04:20:03.518683 244981 net.cpp:129] Top shape: 1 11 36 36 (14256)
I0910 04:20:03.518687 244981 net.cpp:129] Top shape: 1 11 36 36 (14256)
I0910 04:20:03.518688 244981 net.cpp:137] Memory required for data: 1218192108
I0910 04:20:03.518692 244981 layer_factory.hpp:77] Creating layer score_pool4_sem
I0910 04:20:03.518698 244981 net.cpp:84] Creating Layer score_pool4_sem
I0910 04:20:03.518702 244981 net.cpp:406] score_pool4_sem <- pool4_pool4_0_split_1
I0910 04:20:03.518707 244981 net.cpp:380] score_pool4_sem -> score_pool4_sem
I0910 04:20:03.518929 244981 net.cpp:122] Setting up score_pool4_sem
I0910 04:20:03.518934 244981 net.cpp:129] Top shape: 1 11 45 45 (22275)
I0910 04:20:03.518935 244981 net.cpp:137] Memory required for data: 1218281208
I0910 04:20:03.518939 244981 layer_factory.hpp:77] Creating layer score_pool4_semc
I0910 04:20:03.518946 244981 net.cpp:84] Creating Layer score_pool4_semc
I0910 04:20:03.518949 244981 net.cpp:406] score_pool4_semc <- score_pool4_sem
I0910 04:20:03.518954 244981 net.cpp:406] score_pool4_semc <- upscore2_sem_upscore2_sem_0_split_0
I0910 04:20:03.518957 244981 net.cpp:380] score_pool4_semc -> score_pool4_semc
I0910 04:20:03.519040 244981 net.cpp:122] Setting up score_pool4_semc
I0910 04:20:03.519044 244981 net.cpp:129] Top shape: 1 11 36 36 (14256)
I0910 04:20:03.519047 244981 net.cpp:137] Memory required for data: 1218338232
I0910 04:20:03.519049 244981 layer_factory.hpp:77] Creating layer fuse_pool4_sem
I0910 04:20:03.519054 244981 net.cpp:84] Creating Layer fuse_pool4_sem
I0910 04:20:03.519057 244981 net.cpp:406] fuse_pool4_sem <- upscore2_sem_upscore2_sem_0_split_1
I0910 04:20:03.519062 244981 net.cpp:406] fuse_pool4_sem <- score_pool4_semc
I0910 04:20:03.519067 244981 net.cpp:380] fuse_pool4_sem -> fuse_pool4_sem
I0910 04:20:03.519083 244981 net.cpp:122] Setting up fuse_pool4_sem
I0910 04:20:03.519088 244981 net.cpp:129] Top shape: 1 11 36 36 (14256)
I0910 04:20:03.519091 244981 net.cpp:137] Memory required for data: 1218395256
I0910 04:20:03.519093 244981 layer_factory.hpp:77] Creating layer upscore16_sem
I0910 04:20:03.519099 244981 net.cpp:84] Creating Layer upscore16_sem
I0910 04:20:03.519101 244981 net.cpp:406] upscore16_sem <- fuse_pool4_sem
I0910 04:20:03.519106 244981 net.cpp:380] upscore16_sem -> upscore16_sem
I0910 04:20:03.519456 244981 net.cpp:122] Setting up upscore16_sem
I0910 04:20:03.519462 244981 net.cpp:129] Top shape: 1 11 592 592 (3855104)
I0910 04:20:03.519464 244981 net.cpp:137] Memory required for data: 1233815672
I0910 04:20:03.519469 244981 layer_factory.hpp:77] Creating layer score_sem
I0910 04:20:03.519475 244981 net.cpp:84] Creating Layer score_sem
I0910 04:20:03.519479 244981 net.cpp:406] score_sem <- upscore16_sem
I0910 04:20:03.519484 244981 net.cpp:406] score_sem <- data_data_0_split_1
I0910 04:20:03.519487 244981 net.cpp:380] score_sem -> score_sem
I0910 04:20:03.519567 244981 net.cpp:122] Setting up score_sem
I0910 04:20:03.519570 244981 net.cpp:129] Top shape: 1 11 512 512 (2883584)
I0910 04:20:03.519572 244981 net.cpp:137] Memory required for data: 1245350008
I0910 04:20:03.519574 244981 layer_factory.hpp:77] Creating layer loss
I0910 04:20:03.519580 244981 net.cpp:84] Creating Layer loss
I0910 04:20:03.519585 244981 net.cpp:406] loss <- score_sem
I0910 04:20:03.519588 244981 net.cpp:406] loss <- sem
I0910 04:20:03.519593 244981 net.cpp:380] loss -> loss
I0910 04:20:03.519598 244981 layer_factory.hpp:77] Creating layer loss
I0910 04:20:03.527046 244981 net.cpp:122] Setting up loss
I0910 04:20:03.527074 244981 net.cpp:129] Top shape: (1)
I0910 04:20:03.527076 244981 net.cpp:132]     with loss weight 1
I0910 04:20:03.527089 244981 net.cpp:137] Memory required for data: 1245350012
I0910 04:20:03.527093 244981 layer_factory.hpp:77] Creating layer score_fr_geo
I0910 04:20:03.527117 244981 net.cpp:84] Creating Layer score_fr_geo
I0910 04:20:03.527122 244981 net.cpp:406] score_fr_geo <- fc7_drop7_0_split_1
I0910 04:20:03.527128 244981 net.cpp:380] score_fr_geo -> score_fr_geo
I0910 04:20:03.527385 244981 net.cpp:122] Setting up score_fr_geo
I0910 04:20:03.527390 244981 net.cpp:129] Top shape: 1 3 17 17 (867)
I0910 04:20:03.527391 244981 net.cpp:137] Memory required for data: 1245353480
I0910 04:20:03.527398 244981 layer_factory.hpp:77] Creating layer upscore2_geo
I0910 04:20:03.527405 244981 net.cpp:84] Creating Layer upscore2_geo
I0910 04:20:03.527408 244981 net.cpp:406] upscore2_geo <- score_fr_geo
I0910 04:20:03.527415 244981 net.cpp:380] upscore2_geo -> upscore2_geo
I0910 04:20:03.527578 244981 net.cpp:122] Setting up upscore2_geo
I0910 04:20:03.527582 244981 net.cpp:129] Top shape: 1 3 36 36 (3888)
I0910 04:20:03.527585 244981 net.cpp:137] Memory required for data: 1245369032
I0910 04:20:03.527588 244981 layer_factory.hpp:77] Creating layer upscore2_geo_upscore2_geo_0_split
I0910 04:20:03.527595 244981 net.cpp:84] Creating Layer upscore2_geo_upscore2_geo_0_split
I0910 04:20:03.527598 244981 net.cpp:406] upscore2_geo_upscore2_geo_0_split <- upscore2_geo
I0910 04:20:03.527602 244981 net.cpp:380] upscore2_geo_upscore2_geo_0_split -> upscore2_geo_upscore2_geo_0_split_0
I0910 04:20:03.527607 244981 net.cpp:380] upscore2_geo_upscore2_geo_0_split -> upscore2_geo_upscore2_geo_0_split_1
I0910 04:20:03.527635 244981 net.cpp:122] Setting up upscore2_geo_upscore2_geo_0_split
I0910 04:20:03.527639 244981 net.cpp:129] Top shape: 1 3 36 36 (3888)
I0910 04:20:03.527642 244981 net.cpp:129] Top shape: 1 3 36 36 (3888)
I0910 04:20:03.527644 244981 net.cpp:137] Memory required for data: 1245400136
I0910 04:20:03.527647 244981 layer_factory.hpp:77] Creating layer score_pool4_geo
I0910 04:20:03.527653 244981 net.cpp:84] Creating Layer score_pool4_geo
I0910 04:20:03.527657 244981 net.cpp:406] score_pool4_geo <- pool4_pool4_0_split_2
I0910 04:20:03.527662 244981 net.cpp:380] score_pool4_geo -> score_pool4_geo
I0910 04:20:03.527868 244981 net.cpp:122] Setting up score_pool4_geo
I0910 04:20:03.527871 244981 net.cpp:129] Top shape: 1 3 45 45 (6075)
I0910 04:20:03.527873 244981 net.cpp:137] Memory required for data: 1245424436
I0910 04:20:03.527878 244981 layer_factory.hpp:77] Creating layer score_pool4_geoc
I0910 04:20:03.527884 244981 net.cpp:84] Creating Layer score_pool4_geoc
I0910 04:20:03.527886 244981 net.cpp:406] score_pool4_geoc <- score_pool4_geo
I0910 04:20:03.527889 244981 net.cpp:406] score_pool4_geoc <- upscore2_geo_upscore2_geo_0_split_0
I0910 04:20:03.527894 244981 net.cpp:380] score_pool4_geoc -> score_pool4_geoc
I0910 04:20:03.527981 244981 net.cpp:122] Setting up score_pool4_geoc
I0910 04:20:03.527984 244981 net.cpp:129] Top shape: 1 3 36 36 (3888)
I0910 04:20:03.527987 244981 net.cpp:137] Memory required for data: 1245439988
I0910 04:20:03.527989 244981 layer_factory.hpp:77] Creating layer fuse_pool4_geo
I0910 04:20:03.528003 244981 net.cpp:84] Creating Layer fuse_pool4_geo
I0910 04:20:03.528007 244981 net.cpp:406] fuse_pool4_geo <- upscore2_geo_upscore2_geo_0_split_1
I0910 04:20:03.528010 244981 net.cpp:406] fuse_pool4_geo <- score_pool4_geoc
I0910 04:20:03.528014 244981 net.cpp:380] fuse_pool4_geo -> fuse_pool4_geo
I0910 04:20:03.528033 244981 net.cpp:122] Setting up fuse_pool4_geo
I0910 04:20:03.528036 244981 net.cpp:129] Top shape: 1 3 36 36 (3888)
I0910 04:20:03.528038 244981 net.cpp:137] Memory required for data: 1245455540
I0910 04:20:03.528040 244981 layer_factory.hpp:77] Creating layer upscore16_geo
I0910 04:20:03.528048 244981 net.cpp:84] Creating Layer upscore16_geo
I0910 04:20:03.528050 244981 net.cpp:406] upscore16_geo <- fuse_pool4_geo
I0910 04:20:03.528054 244981 net.cpp:380] upscore16_geo -> upscore16_geo
I0910 04:20:03.528221 244981 net.cpp:122] Setting up upscore16_geo
I0910 04:20:03.528225 244981 net.cpp:129] Top shape: 1 3 592 592 (1051392)
I0910 04:20:03.528228 244981 net.cpp:137] Memory required for data: 1249661108
I0910 04:20:03.528236 244981 layer_factory.hpp:77] Creating layer score_geo
I0910 04:20:03.528240 244981 net.cpp:84] Creating Layer score_geo
I0910 04:20:03.528244 244981 net.cpp:406] score_geo <- upscore16_geo
I0910 04:20:03.528247 244981 net.cpp:406] score_geo <- data_data_0_split_2
I0910 04:20:03.528251 244981 net.cpp:380] score_geo -> score_geo
I0910 04:20:03.528327 244981 net.cpp:122] Setting up score_geo
I0910 04:20:03.528332 244981 net.cpp:129] Top shape: 1 3 512 512 (786432)
I0910 04:20:03.528336 244981 net.cpp:137] Memory required for data: 1252806836
I0910 04:20:03.528337 244981 layer_factory.hpp:77] Creating layer loss_geo
I0910 04:20:03.528342 244981 net.cpp:84] Creating Layer loss_geo
I0910 04:20:03.528344 244981 net.cpp:406] loss_geo <- score_geo
I0910 04:20:03.528348 244981 net.cpp:406] loss_geo <- geo
I0910 04:20:03.528352 244981 net.cpp:380] loss_geo -> loss_geo
…
